model-dz/saved_model/MFCCNN_250_state_dict.pt (torch, 279008 bytes, 20 tensors)

backbone.0.conv.weight f4 [8, 1, 3, 3]
0	0xbeb039c2	-0.34419066
1	0xbf06bd81	-0.5263291
2	0xbe2a08a8	-0.16604865
3	0x3dcffcba	0.10155626
4	0xbd1eed06	-0.038800262
5	0xbd39c36d	-0.04535239
6	0xbe4ec055	-0.20190556
7	0xbf05addb	-0.5221841
8	0xbeeb1840	-0.4591694
9	0x3e413e3e	0.188714
10	0x3e7a6728	0.24453413
11	0x3cd01658	0.02540128
12	0xbed0d1de	-0.40785116
13	0xbf5ec810	-0.8702402
14	0xbec1c05f	-0.3784208
15	0xbe226cca	-0.15861812
16	0xbe338b9d	-0.17533727
17	0x3c26170c	0.010137331
18	0x3e9f28c8	0.310858
19	0x3ef049a4	0.46931183
20	0x3e61b630	0.22042155
21	0xbdcd00c7	-0.10009914
22	0xbd5e5d1d	-0.05428802
23	0xbbaa7fc0	-0.0052032173
24	0x3eb9c9a2	0.36286646
25	0x3f16027d	0.58597547
26	0x3eb05449	0.34439304
27	0xbe9068bd	-0.2820491
28	0xbe8dc8df	-0.27692315
29	0xbda7dec6	-0.081967875
30	0x3e4f9eb3	0.20275383
31	0x3ebc275a	0.36748773
32	0x3ed5fcd1	0.41794446
33	0x3eb68f11	0.35656026
34	0x3ea9cdcd	0.33164826
35	0x3cc4f573	0.02404282
36	0xbe0820a0	-0.13293695
37	0xbe8afbcf	-0.2714524
38	0xbe1eb74e	-0.15499613
39	0x3e7f935d	0.24958558
40	0x3ef67aa1	0.48140433
41	0x3e8427e3	0.2581168
42	0xbe4acf44	-0.19805628
43	0xbebfc143	-0.37452134
44	0xbe408b40	-0.1880312
45	0xbe599e83	-0.21251874
46	0xbe04ad96	-0.12956843
47	0xbecf3bc1	-0.40475276
48	0x3bfc10aa	0.007692416
49	0xbebfbe44	-0.3744985
50	0xbe87a11f	-0.26490113
51	0x3e4aa196	0.19788203
52	0x3e8574a8	0.26065564
53	0x3ede9da9	0.4347966
54	0x3deb1428	0.11478454
55	0x3eac1049	0.33606175
56	0x3f02a322	0.5103017
57	0xbd0b9e3a	-0.034086443
58	0x3ec3c2f4	0.38234675
59	0x3e9b152a	0.30289584
60	0xbe26dc6a	-0.16295019
61	0x3d38ffad	0.045165706
62	0x3d97f85d	0.074204184
63	0x3e245c33	0.16050796
64	0x3e8387c2	0.25689512
65	0xbc493e16	-0.012282869
66	0x3effe33f	0.49978063
67	0x3f043e1c	0.5165727
68	0x3e667858	0.22506845
69	0x3d6384d0	0.05554658
70	0x3e07d77d	0.13265796
71	0x3cf8fb5f	0.0303933

backbone.0.conv.bias f4 [8]
0	0x3e16a003	0.14709477
1	0xbe0b9a1a	-0.13633004
2	0x3e91fbe8	0.28512502
3	0x3e8e6962	0.27814776
4	0xbd9cf96b	-0.0766476
5	0x3e36047f	0.17775153
6	0xbe4a5b09	-0.1976129
7	0xbc966715	-0.0183597

backbone.0.bn.weight f4 [8]
0	0x3f38954e	0.7210282
1	0x3f8bb724	1.0915265
2	0x3f3cd6a5	0.7376502
3	0x3f9a845f	1.2071646
4	0x3fd7e152	1.6865637
5	0x3f354d2e	0.7082089
6	0x3f75cc33	0.9601471
7	0x3fb3a388	1.4034281

backbone.0.bn.bias f4 [8]
0	0xbc554419	-0.013016724
1	0x3e7e8dee	0.2485883
2	0x3f09e377	0.5386271
3	0x3e408f1a	0.18804589
4	0xbe6fc369	-0.23414387
5	0x3e3f05a0	0.1865449
6	0xbd84d8d1	-0.06486667
7	0x3ea6905f	0.3253202

backbone.0.bn.running_mean f4 [8]
0	0xc047461b	-3.113654
1	0x419125aa	18.14339
2	0x40a54de2	5.165757
3	0xc127a6f8	-10.478264
4	0xc14bce6f	-12.737899
5	0x40ea8b38	7.3294945
6	0xc0c15a41	-6.0422673
7	0xc14ae361	-12.680512

backbone.0.bn.running_var f4 [8]
0	0x43f6090d	492.0707
1	0x46152c9c	9547.152
2	0x443c1d91	752.462
3	0x454234ba	3107.2954
4	0x4587e4b5	4348.5884
5	0x4507dd1d	2173.8196
6	0x44ddc60f	1774.1893
7	0x45a93a45	5415.2837

backbone.2.conv.weight f4 [16, 8, 3, 3]
0	0x3e440891	0.19143893
1	0x3d7b0819	0.06128702
2	0x3df8366f	0.121197574
3	0x3e81ae91	0.25328496
4	0x3dbd368e	0.09238921
5	0x3e1411e4	0.1445995
6	0xbe2cf910	-0.16891885
7	0xbe96a0a7	-0.29419443
8	0xbe4ff56c	-0.20308465
9	0x3e5be18b	0.21472757
10	0x3e7efa9e	0.2490029
11	0x3e0e8fdd	0.13922067
12	0x3d582435	0.052768905
13	0x3dd0fb8b	0.10204228
14	0x3d0429e7	0.032266524
15	0xbe95dbcf	-0.29269263
16	0xbee69556	-0.4503581
17	0xbe6962b6	-0.22791561
18	0xbdd75f96	-0.105162784
19	0xbd91c68e	-0.071179494
20	0xbce7cce3	-0.02829594
21	0xbcfc62ec	-0.030808888
22	0xbe2a6137	-0.16638647
23	0xbd125304	-0.0357237
24	0xbde2071b	-0.110365115
25	0xbb402158	-0.002931675
26	0xbdfaeb85	-0.12251953
27	0xbe3595ab	-0.17732875
28	0xbde5a909	-0.112138815
29	0xbdb4d146	-0.08828978
30	0xbd7faa2c	-0.062418148
31	0xbe318ad1	-0.1733811
32	0xbd5e0a00	-0.054208755
33	0xbe9138a9	-0.2836354
34	0xbe799395	-0.24372704
35	0xbe90523c	-0.2818774
36	0x3e164970	0.14676452
37	0x3d8f39e0	0.06993461
38	0x3d97b667	0.07407837
39	0xbdc80097	-0.097657375
40	0xbe39cf15	-0.18145402
41	0xbd0f4246	-0.034975313
42	0xbde7e917	-0.11323755
43	0xbe8c90bb	-0.2745417
44	0xbe6ad225	-0.22931726
45	0xbd799ba3	-0.060939442
46	0x3d94218a	0.072329596
47	0xbb1f5c9d	-0.0024316676
48	0x3e392391	0.18079974
49	0x3e9ad0ca	0.30237418
50	0x3e4d8384	0.200697
51	0xbe36bb7b	-0.17844956
52	0xbd29bddc	-0.04144083
53	0x3d4ccf1b	0.0500022
54	0xbd855f96	-0.06512372
55	0xbe99ce9e	-0.3004045
56	0xbdfd02a5	-0.1235402
57	0xbf08ac21	-0.5338765
58	0xbef68e42	-0.4815541
59	0xbecd9ecc	-0.40160215
60	0xbeb2e3bb	-0.3493937
61	0xbe81dc2c	-0.2536329
62	0x3ce96a8d	0.02849319
63	0xbe8a6b97	-0.2703521
64	0xbebc123b	-0.3673266
65	0xbe6a3bd1	-0.2287438
66	0xbf27cf48	-0.6555066
67	0xbf16e448	-0.5894208
68	0xbea0f342	-0.3143559
69	0xbed22859	-0.41046408
70	0xbe964504	-0.2934953
71	0xbd865b09	-0.06560332
72	0x3df16c6d	0.11788259
73	0xbb0954f9	-0.0020955189
74	0x3c936732	0.017993543
75	0xbdc5cbe6	-0.09658031
76	0xbc2c2fb7	-0.010509423
77	0xbdf179ce	-0.117908105
78	0x3ea84d48	0.3287146
79	0x3e96082f	0.2930312
80	0x3e82e952	0.25568634
81	0x3d9a34aa	0.07529576
82	0x3e3caf76	0.18426308
83	0x3e361fdf	0.17785595
84	0xbe7e411b	-0.24829523
85	0xbe4fce14	-0.20293456
86	0xbe98ff2f	-0.2988219
87	0x3ec898f0	0.39179182
88	0x3f338e84	0.70139337
89	0x3ea5f4ad	0.32413235
90	0xbe34643f	-0.17616366
91	0xbe367ee2	-0.1782184
92	0xbdbc4ad9	-0.091939636
93	0xbe7bc543	-0.24586968
94	0xbea8e7eb	-0.3298944
95	0xbe6371d7	-0.22211395
96	0xbecdd2e7	-0.40199968
97	0xbe1a341f	-0.15058945
98	0xbe52f692	-0.20601872
99	0x3ea1b0d3	0.3158022
100	0x3ed22d8f	0.41050383
101	0x3f02e954	0.5113728
102	0x3e96a37c	0.29421604
103	0x3d3fe02d	0.04684465
104	0x3ee4b1c8	0.44666886
105	0xbdc771e1	-0.097385176
106	0xbd8d1fea	-0.06890853
107	0x3c9c7677	0.019099457
108	0xbed477da	-0.4149769
109	0xbe93a2ca	-0.28835136
110	0xbeeb9904	-0.4601518
111	0x3c0852f6	0.008320561
112	0x3d9b7f7c	0.07592675
113	0x3e0f9c4d	0.14024468
114	0x3e97cfa0	0.29650593
115	0x3ea7f13d	0.32801238
116	0x3e81ca01	0.2534943
117	0x3dc5a5d1	0.096507676
118	0x3ddc2872	0.10749902
119	0x3dffe7de	0.12495397
120	0x3f0b89e7	0.545073
121	0x3f2113df	0.62920946
122	0x3efde740	0.49590492
123	0xbe844e2c	-0.2584089
124	0xbd03da79	-0.032190774
125	0xbe5b537c	-0.21418566
126	0xbc5a702a	-0.013332406
127	0xbdbec1ee	-0.09314333
128	0x3cfdde07	0.03098966
129	0xbe26b4a0	-0.1627984
130	0xbe7426ce	-0.23842928
131	0xbdb81097	-0.08987539
132	0x3db094cb	0.0862213
133	0xbe58f5be	-0.21187493
134	0x3e0bda79	0.1365756
135	0xbe29d8da	-0.16586629
136	0xbe442e45	-0.19158275
137	0x3c7b0cf1	0.01532291
138	0x3eba3d85	0.3637506
139	0x3eaad3e2	0.3336478
140	0x3f0a5300	0.540329
141	0xbea89097	-0.32922813
142	0xbe9af18f	-0.3026242
143	0x3c69ee58	0.014278017
144	0x3e420498	0.18947065
145	0x3dfb2510	0.122629285
146	0x3e4ef124	0.20209175
147	0x3e2d8e4a	0.1694881
148	0x3e0b86ec	0.13625687
149	0x3e4c5157	0.19952904
150	0xbe9c37e0	-0.3051138
151	0xbe7ef33d	-0.24897476
152	0xbe92d3e7	-0.28677294
153	0xbdcc47e0	-0.099746466
154	0xbc9ea5a7	-0.019366099
155	0x3c79bf4b	0.015243362
156	0x3e2de7d8	0.16982973
157	0x3e080310	0.13282418
158	0x3e660ac5	0.22465046
159	0xbf1876c9	-0.5955625
160	0xbf1ad00c	-0.60473704
161	0xbf857d15	-1.0428797
162	0xbe0cf290	-0.13764405
163	0xbe3cde06	-0.1844407
164	0xbe639a7c	-0.222269
165	0xbef84b7b	-0.48495087
166	0xbec3fd1d	-0.38279048
167	0xbe92090a	-0.2852252
168	0xbe329b49	-0.17442049
169	0xbe2ed212	-0.17072323
170	0xbe81ed58	-0.2537639
171	0xbe1b853b	-0.15187542
172	0xbe55f9a6	-0.20896015
173	0xbe0c8098	-0.1372093
174	0x3d57e017	0.052703943
175	0xbd640a74	-0.05567403
176	0xbd9931a9	-0.07480175
177	0x3df24374	0.11829272
178	0x3eb38ff1	0.35070756
179	0x3e15d905	0.14633568
180	0x3dbfb6d9	0.09361047
181	0x3e053369	0.13007893
182	0x3e1aa4c0	0.1510191
183	0xbd1e011b	-0.038575273
184	0x3d61090b	0.054940265
185	0x3e17c739	0.14822091
186	0xbce8e498	-0.028429314
187	0xbb877752	-0.004134097
188	0x3d383c30	0.044979274
189	0x3dc15057	0.09439152
190	0x3d5eba35	0.0543768
191	0x3c085b46	0.0083225425
192	0x3d53f6ee	0.051749162
193	0x3e66a7c2	0.22524932
194	0x3e962335	0.29323736
195	0xbed17c98	-0.4091537
196	0x3d2a7d31	0.041623298
197	0xbe4fad0d	-0.20280857
198	0xbdffd9a2	-0.12492682
199	0xbe6b77bc	-0.22994894
200	0xbe0083fa	-0.12550345
201	0x3d1039bc	0.03521131
202	0xbe8f1426	-0.2794506
203	0x3d739c31	0.059475128
204	0xbe0c934e	-0.13728067
205	0xbda145bf	-0.07874631
206	0xbd8686dc	-0.06568691
207	0xbe563213	-0.2091754
208	0xbe60cf50	-0.21954083
209	0xbe77e4b2	-0.24208334
210	0xbd9c2522	-0.0762427
211	0xbea77851	-0.32708982
212	0xbea5850a	-0.32328063
213	0x3da84d4c	0.08217868
214	0x3d0683c8	0.03284052
215	0x3e15416b	0.14575736
216	0xbe4cf575	-0.2001551
217	0xbe2cde41	-0.16881658
218	0xbe5327fd	-0.20620723
219	0xbcd45472	-0.025919173
220	0xbe67c74e	-0.22634622
221	0xbdeebe4d	-0.11657391
222	0xbd7987c5	-0.060920496
223	0xbdde3c91	-0.10851396
224	0x3dcfb981	0.10142804
225	0x3c1e8eff	0.009677648
226	0xbd39bda5	-0.045346875
227	0xbcc6d025	-0.024269173
228	0xbf39f7ab	-0.72643536
229	0xbf21dcd2	-0.6322757
230	0xbf4c8f4f	-0.7990617
231	0xbdad1b07	-0.08452421
232	0x3db36a11	0.08760465
233	0xbe26a5e1	-0.16274215
234	0x3e8add55	0.27121988
235	0x3df610f9	0.12014956
236	0x3e1343fd	0.14381404
237	0xbe79d5ad	-0.24397917
238	0xbe9e8a30	-0.30964804
239	0xbf001133	-0.50026244
240	0xbe999521	-0.2999659
241	0xbe331338	-0.174878
242	0xbe1f1014	-0.15533477
243	0x3b8a4bb7	0.0042204517
244	0xbd4f9319	-0.050677393
245	0x3cb90331	0.02258453
246	0x3e2ca4fb	0.1685981
247	0x3e2d2893	0.16910009
248	0x3eaffe4c	0.343737
249	0xbe58fb54	-0.21189624
250	0xbedc5093	-0.43030223
251	0xbece6e7f	-0.40318677
252	0x3eddaf93	0.43298015
253	0x3edaaac8	0.4270842
254	0x3ee91ce2	0.45529848
255	0x3e6f1d63	0.23351054

backbone.2.conv.bias f4 [16]
0	0x3dc205ea	0.09473784
1	0x3e0a1b92	0.1348708
2	0xbd3a26d4	-0.045447186
3	0x3e5764cc	0.21034545
4	0x3e983255	0.297259
5	0x3e574b8f	0.21024917
6	0xbdbf7b29	-0.09349663
7	0xbe0285d6	-0.12746367
8	0x3d08b87b	0.03337906
9	0x3e4d6a4b	0.20060079
10	0xbe0eea99	-0.1395668
11	0x3ddb0181	0.10693646
12	0x3d88b0d2	0.06674351
13	0xbd1c345e	-0.03813588
14	0x3d32dfec	0.04367058
15	0x3e7d0f7d	0.2471294

backbone.2.bn.weight f4 [16]
0	0x3f4ed35d	0.80791265
1	0x3f64acd6	0.89326227
2	0x3fb70ad4	1.430018
3	0x3f78beed	0.9716633
4	0x3f6dabd2	0.928403
5	0x3f70694f	0.9391069
6	0x3fa86280	1.315506
7	0x3f369520	0.71321297
8	0x3f5dbcdc	0.866163
9	0x3f87b41d	1.0601841
10	0x3f64f130	0.8943052
11	0x3fade1fc	1.358459
12	0x3f9c5d2b	1.2215933
13	0x3f4ea8a7	0.80726093
14	0x3fbf6e8a	1.4955609
15	0x3f5d0be6	0.8634628

backbone.2.bn.bias f4 [16]
0	0x3d295120	0.041337132
1	0xbeb44b2c	-0.35213602
2	0x3cb89ad1	0.02253476
3	0x3d95ff0c	0.07324037
4	0x3eb4098a	0.35163528
5	0x3ded6961	0.11592365
6	0xbeac44ef	-0.33646342
7	0x3e2fe928	0.17178786
8	0x3eabca69	0.33552864
9	0x3db23821	0.08702112
10	0x3d0fa5bf	0.035070177
11	0xbec0aea1	-0.3763323
12	0xbda8f744	-0.08250287
13	0x3cdd3ea1	0.027007403
14	0x3ec91594	0.39274275
15	0xbe90cbc1	-0.28280452

backbone.2.bn.running_mean f4 [16]
0	0xc058b5a0	-3.3860855
1	0x3f4fa370	0.8110876
2	0xc015c740	-2.3402863
3	0xbfc580d9	-1.5429946
4	0x3e949d7f	0.2902641
5	0xbdbc1eba	-0.09185548
6	0xc0253150	-2.5811348
7	0xbf7ceb9c	-0.9879701
8	0xbf133fdb	-0.5751931
9	0x3eb8538d	0.36001244
10	0xbff974f1	-1.9488813
11	0xbf2345a9	-0.6377817
12	0xbf96bf2e	-1.1777093
13	0xbecec277	-0.4038274
14	0x3f7e366d	0.993018
15	0x3f8b7924	1.0896344

backbone.2.bn.running_var f4 [16]
0	0x3f66381c	0.89929366
1	0x3f2e692b	0.68129224
2	0x3fb07981	1.378708
3	0x3eede5ad	0.4646429
4	0x3f031036	0.5119661
5	0x3f1da383	0.61577624
6	0x3f821b2e	1.0164545
7	0x3e998947	0.29987547
8	0x3eff81b0	0.4990363
9	0x3f14657f	0.5796737
10	0x3ed3e7bc	0.41387737
11	0x40002fc5	2.0029156
12	0x3f224982	0.63393414
13	0x3f80d17a	1.0063927
14	0x3f97b12a	1.1850941
15	0x3ebbcf68	0.36681676

backbone.4.conv.weight f4 [16, 16, 3, 3]
0	0xbda7765f	-0.08176874
1	0xbe8f28a4	-0.27960694
2	0xbe709fb7	-0.23498426
3	0x3c2da36d	0.010598046
4	0x3d7cb4a7	0.06169572
5	0x3da911e2	0.08255364
6	0xbe33f8ef	-0.1757543
7	0xbda60a5f	-0.08107447
8	0x3dca15fe	0.09867476
9	0x3edb9c4a	0.42892677
10	0x3ee98a4e	0.4561333
11	0x3e669468	0.2251755
12	0xbceca03c	-0.028885
13	0x3dad28dc	0.08455059
14	0x3d7395dd	0.059469093
15	0x3b14ca57	0.0022703612
16	0xbe2ab760	-0.16671515
17	0x3e5401d3	0.20703821
18	0xbb77662b	-0.0037750106
19	0xbd175ba9	-0.03695265
20	0xbd9ef680	-0.0776186
21	0x3cf2bed8	0.029632017
22	0xbec7e0a6	-0.3903858
23	0xbe857e38	-0.2607286
24	0xbccaf41c	-0.024774604
25	0x3c45b179	0.012066239
26	0x3c887ae0	0.016660154
27	0x3deadd3d	0.11467979
28	0x3e4b678e	0.19863722
29	0x3eb18ce2	0.34677798
30	0xbe123f86	-0.14282045
31	0xbea409cb	-0.3203872
32	0xbe056141	-0.1302538
33	0x3d602aff	0.054728504
34	0xbcc2a9c1	-0.023762586
35	0xbd6d9744	-0.058005586
36	0xbda0bfd8	-0.07849091
37	0x3d9d7edc	0.07690212
38	0x3dcf65e7	0.10126858
39	0x3d385bf2	0.04500956
40	0x3ebf42c0	0.37355614
41	0x3d3ab35f	0.045581218
42	0xbdd98912	-0.10621847
43	0xbd6bd7f8	-0.05757901
44	0x3d24b717	0.04021367
45	0xbd7a5503	-0.06111623
46	0xbe1e130f	-0.15436958
47	0xbea83765	-0.32854763
48	0x3e803edd	0.2504796
49	0x3ed0ba05	0.40766922
50	0x3e380648	0.17971146
51	0x3c52edff	0.0128741255
52	0x3e6fb955	0.23410542
53	0x3d1331a0	0.035935998
54	0x3d970f29	0.073759384
55	0x3dd1e824	0.102493554
56	0x3d8ff8a6	0.07029848
57	0xbe4b2c47	-0.19841109
58	0xbeaff2e6	-0.34365004
59	0xbd909847	-0.070602946
60	0x3d54e2ba	0.051974036
61	0x3d37335e	0.044726722
62	0x3d5a224d	0.053255368
63	0x3cd96374	0.02653668
64	0xbe46098f	-0.19339584
65	0xbe71ac2c	-0.23600835
66	0xbe4c69a0	-0.19962168
67	0xbdfaad55	-0.12240092
68	0x3e224519	0.15846671
69	0xbd93ae14	-0.07210937
70	0xbdbeeed4	-0.093228966
71	0xbdf534ac	-0.11972937
72	0x3e106bbf	0.14103602
73	0x3eb1bbf7	0.34713718
74	0x3dcaabd6	0.09896056
75	0xbd9fc4b6	-0.078011915
76	0xbe5e4e71	-0.2170961
77	0xbe5ae370	-0.21375823
78	0x3e1447e9	0.14480557
79	0xbb9336a2	-0.0044925967
80	0x3d1c384b	0.038139623
81	0xbdaeaf8e	-0.08529578
82	0xbd8e3183	-0.06943037
83	0x3b5017a9	0.0031752384
84	0x3e561d27	0.20909558
85	0x3e77db14	0.24204665
86	0x3ae3eab3	0.0017388671
87	0xbd7ae27b	-0.061251145
88	0x3db563d3	0.088569306
89	0xbd87d0fd	-0.06631658
90	0x3dcfb76b	0.10142406
91	0xbe32f72a	-0.17477098
92	0xbe046924	-0.12930733
93	0x3db6340a	0.088966444
94	0x3e1ae13e	0.15124986
95	0x3df61e80	0.12017536
96	0xbe1e5222	-0.15461019
97	0xbe9d6d1a	-0.307473
98	0xbced260b	-0.028948804
99	0xbdfb6701	-0.12275506
100	0x3db694c6	0.08915095
101	0xbc72e87b	-0.0148259355
102	0xbdb6940f	-0.08914959
103	0xbea25625	-0.31706348
104	0xbe520879	-0.20511045
105	0xbe0c0163	-0.13672404
106	0xbe8c0674	-0.27348673
107	0xbe78799f	-0.24265145
108	0x3e124091	0.14282443
109	0x3ebaf42b	0.3651441
110	0x3e9cb200	0.30604553
111	0xbe0d28a9	-0.13785042
112	0x3de32716	0.110914394
113	0x3e6a62af	0.22889207
114	0xbdc781ba	-0.0974154
115	0x3cd981ab	0.026551088
116	0x3e7013a9	0.23445
117	0x3ee675a6	0.45011634
118	0x3f27625e	0.6538447
119	0x3d99b962	0.07506062
120	0xbe8aca42	-0.27107435
121	0xbe6df9c4	-0.2323981
122	0xbbda2d5a	-0.0066582384
123	0xbdccc964	-0.0999935
124	0x3e6f3825	0.23361261
125	0x3daf7c25	0.085686006
126	0x3c62a292	0.013832705
127	0x3e66cec9	0.2253982
128	0xbdfc6290	-0.12323487
129	0x3ec09ea9	0.37621048
130	0x3f4190e0	0.75611687
131	0x3dc94566	0.0982769
132	0xbe070165	-0.13184126
133	0x3e626e4d	0.22112389
134	0xbe29e217	-0.16590153
135	0xbe9ba7f9	-0.3040159
136	0xbef43e7b	-0.4770392
137	0xbe05a5fa	-0.13051596
138	0x3d1c0ae3	0.03809632
139	0x3d2722d4	0.0408047
140	0xbbe5ce0f	-0.0070130895
141	0xbe275e9f	-0.16344689
142	0xbe9ad262	-0.30238634
143	0xbe4a8238	-0.19776237
144	0xbe27055d	-0.1631064
145	0xbf27e0d0	-0.6557741
146	0xbe988dfb	-0.29795823
147	0xbeb82ff2	-0.3597408
148	0xbf192a66	-0.5983032
149	0xbe24529c	-0.16047138
150	0xbe0229b1	-0.12711217
151	0xbe21a177	-0.1578425
152	0xbdc5bbf2	-0.09654988
153	0x3de589e3	0.112079404
154	0x3e9b177d	0.30291358
155	0x3e981b09	0.29708126
156	0xbe2fe6d7	-0.17177902
157	0xbe2fe2e8	-0.17176402
158	0xbd86d3e4	-0.06583384
159	0x3dc83c9e	0.09777187
160	0x3dc722d9	0.097234435
161	0x3db72d7b	0.089442216
162	0xbb90d42d	-0.0044198246
163	0xbe211537	-0.15730749
164	0xbdfb1605	-0.12260059
165	0x3e6a69f2	0.22891977
166	0x3c3e51e9	0.011616209
167	0x3baaa040	0.0052070916
168	0x3da9c338	0.08289188
169	0x3db6b00a	0.089202955
170	0x3e86e139	0.26343706
171	0xbcd43d82	-0.025908235
172	0xbead46e5	-0.3384315
173	0xbe8eb54c	-0.27872694
174	0xbdfc7ccb	-0.1232849
175	0xbcec566c	-0.028849803
176	0x3ddccd13	0.10781302
177	0xbde8e20b	-0.11371239
178	0xbd62c79e	-0.05536615
179	0x3dd632bf	0.10458898
180	0xbe4e297a	-0.2013301
181	0xbc0d8fa8	-0.008640207
182	0x3be60ba9	0.007020433
183	0x3e5af3a8	0.2138201
184	0x3f30419d	0.6885012
185	0x3e8fe7a6	0.2810642
186	0x3ddc749c	0.10764429
187	0xbd06e0e7	-0.032929327
188	0xbe2a2f96	-0.16619715
189	0xbe0b8c7d	-0.13627811
190	0x3ce85eaa	0.028365452
191	0xbdfe1989	-0.12407214
192	0xbd85c90e	-0.06532489
193	0x3c92f35a	0.017938305
194	0x3ddafe15	0.106929936
195	0x3d553bc7	0.05205896
196	0xbd08ee20	-0.03343022
197	0xbe0404d3	-0.12892465
198	0x3e365685	0.17806442
199	0xbe9f4a32	-0.31111294
200	0xbd817ad6	-0.06322257
201	0xbe59859b	-0.21242373
202	0xbef763a3	-0.48318204
203	0xbd2b1b50	-0.041774094
204	0xbe129382	-0.14314082
205	0xbe3a1df6	-0.18175492
206	0x3cc8386d	0.024440968
207	0xbe0f010b	-0.13965242
208	0xbeb67ebc	-0.35643566
209	0xbe9d221c	-0.30690086
210	0x3e5482bd	0.20752998
211	0x3e588cf3	0.21147518
212	0xbc1d3884	-0.009595994
213	0x3e54aa4c	0.20768088
214	0x3ec0ec12	0.37680107
215	0xbd3fedf1	-0.046857778
216	0xbd9c2cd6	-0.07625739
217	0xbc9adcd7	-0.018904133
218	0x3e18ece9	0.14934124
219	0xbddcbcf1	-0.10778225
220	0xbd9ae751	-0.07563651
221	0xbd5a076d	-0.053229738
222	0x3e589dae	0.211539
223	0x3dc98fa9	0.09841854
224	0x3e2c2b8e	0.1681349
225	0xbe9234a5	-0.2855579
226	0xbef06655	-0.46953073
227	0xbd946123	-0.0724509
228	0x3e14ca91	0.14530398
229	0x3e4a0763	0.1972938
230	0xbe121d48	-0.14268982
231	0x3e1390a1	0.1441064
232	0x3bfba83d	0.0076799677
233	0xbd9d7ce4	-0.076898366
234	0xbd9d8dbc	-0.07693049
235	0xbe7f1329	-0.24909653
236	0xbdb349e7	-0.0875433
237	0xbe285977	-0.16440378
238	0xbebaded1	-0.3649812
239	0xbe6b05c4	-0.22951418
240	0xbe433040	-0.19061375
241	0x3d460fff	0.0483551
242	0x3d5fb3eb	0.054614943
243	0x3b963594	0.0045840237
244	0x3e3a9ef4	0.18224698
245	0x3d061f7b	0.032744866
246	0x3e06b6b1	0.13155629
247	0x3f2b3fee	0.66894424
248	0x3ee15f92	0.44018227
249	0xbe079c12	-0.1324313
250	0x3e8ad243	0.27113542
251	0x3d1196dc	0.03554426
252	0xbe52634f	-0.20545696
253	0xbed7f85a	-0.42181665
254	0xbdc1e64d	-0.094677545
255	0xbd851133	-0.06497421

backbone.4.conv.bias f4 [16]
0	0x3deb006e	0.11474691
1	0xbe2f5bad	-0.17124815
2	0xbc5aab37	-0.013346485
3	0x3e678f21	0.22613193
4	0xbdc80c82	-0.09768011
5	0xbd386af1	-0.045023862
6	0x3d51f07d	0.051254738
7	0x3e03c3c1	0.12867643
8	0x3e2a6f39	0.1664399
9	0xbe7577d7	-0.23971497
10	0x3e098677	0.134302
11	0xbbb6b893	-0.005576202
12	0xbb9d47d9	-0.0047998247
13	0x3d4428b6	0.047890387
14	0x3d91e3b9	0.07123513
15	0x3dc816de	0.097699866

backbone.4.bn.weight f4 [16]
0	0x402b127d	2.6730034
1	0x4072ebb8	3.7956371
2	0x405d558c	3.4583464
3	0x403da868	2.9634037
4	0x402ca018	2.6972713
5	0x405035d5	3.2532856
6	0x4042732a	3.038279
7	0x405563ee	3.3342242
8	0x40359222	2.8370442
9	0x4038d82a	2.8881936
10	0x401abb7c	2.4176931
11	0x405c82db	3.4454868
12	0x40356fa9	2.8349402
13	0x40594b21	3.3952105
14	0x404328f7	3.0493753
15	0x4038ba3d	2.886367

backbone.4.bn.bias f4 [16]
0	0x3fa1ee25	1.2650801
1	0x3f370c47	0.7150311
2	0x3f66b0a6	0.90113294
3	0x3f9204fe	1.1407773
4	0x3f7c11d5	0.9846471
5	0x3fbd1dca	1.4774716
6	0x3f39640a	0.7241827
7	0x3f616b11	0.88053995
8	0x3f8afc31	1.0858213
9	0x3f7de313	0.9917461
10	0x3f685541	0.9075509
11	0x3f7cfc46	0.9882244
12	0x3f921ed3	1.1415657
13	0x3f41a039	0.75635105
14	0x3f892398	1.0713987
15	0x3fc0baa4	1.5056958

backbone.4.bn.running_mean f4 [16]
0	0x3f9dc71a	1.2326386
1	0xbf495e75	-0.78659755
2	0x3d3354b4	0.04378195
3	0xc017e9c9	-2.373644
4	0xbdbb8340	-0.09155893
5	0xbfb36dcc	-1.4017882
6	0xbdf74f53	-0.12075677
7	0xbe62523e	-0.22101685
8	0x3fd82f35	1.6889406
9	0xc02460b8	-2.5684032
10	0xbf7959d8	-0.97402716
11	0x3e30908f	0.17242645
12	0xbea7f6cd	-0.32805482
13	0xbdc1e707	-0.09467893
14	0x3f219fbb	0.63134354
15	0x3f91bbb3	1.1385406

backbone.4.bn.running_var f4 [16]
0	0x3fbf319b	1.4937013
1	0x405accc2	3.4187474
2	0x3fe0e388	1.7569437
3	0x3faeb904	1.3650212
4	0x3f9cec20	1.225956
5	0x3fe2b5b9	1.7711707
6	0x3fc4cec3	1.5375599
7	0x3ffb9cf5	1.9657274
8	0x3fad1363	1.3521541
9	0x3fb8a07e	1.4423978
10	0x3f915477	1.1353902
11	0x40475229	3.1143897
12	0x3fc82cc7	1.5638665
13	0x403eb608	2.9798603
14	0x3fe019eb	1.750791
15	0x3fe72fc2	1.806145

classifier.0.weight f4 [250, 256]
0	0x3c9bb0cd	0.019005204
1	0xbdb177fe	-0.08665465
2	0xbd71626f	-0.058931764
3	0xbe973383	-0.29531488
4	0x3e49a503	0.19691853
5	0x3e5ed415	0.2176059
6	0x3dc77da5	0.09740762
7	0x3de303d1	0.11084712
8	0xbeb2d71a	-0.34929734
9	0xbea45ad2	-0.3210054
10	0xbef1f1a5	-0.47254673
11	0xbf1302e5	-0.5742629
12	0xbe21a5dd	-0.15785928
13	0xbdbe0867	-0.09278946
14	0x3d3784fe	0.044804566
15	0xbd2208ed	-0.039559294
16	0xbecc84f3	-0.39945182
17	0xbf1c13ed	-0.60967904
18	0xbf4e395e	-0.80556285
19	0xbf0a9b38	-0.54143095
20	0x3e9046e8	0.28179097
21	0x3df46ec5	0.1193519
22	0x3e294f70	0.16534209
23	0x3de804e1	0.113290556
24	0xbea75915	-0.32685152
25	0xbeefe6aa	-0.4685567
26	0xbe44e140	-0.19226551
27	0xbec2bd48	-0.38035035
28	0x3e0f937a	0.14021102
29	0xbc91a5bf	-0.01777923
30	0xbe0b7c6a	-0.13621679
31	0xbd5c5f1d	-0.053801645
32	0xbec5e6ba	-0.38652593
33	0xbce988d7	-0.028507633
34	0xbeaac3b9	-0.3335245
35	0xbe512ce3	-0.20427279
36	0xbed6777a	-0.41888028
37	0xbe3bf26f	-0.183542
38	0xbe390e3b	-0.18071835
39	0xbd0a0836	-0.033699237
40	0xbf08c86c	-0.5343082
41	0x3e65e01a	0.22448769
42	0xbe23d21b	-0.15998118
43	0xbc6634a6	-0.014050638
44	0x3e4645e2	0.19362596
45	0x3e45ca8c	0.19315547
46	0x3db4b05f	0.088227026
47	0x3ee4aa57	0.4466121
48	0xbf6fe174	-0.9370339
49	0xbf2c60a0	-0.6733494
50	0xbf5af0d5	-0.8552373
51	0xbf1e8719	-0.6192489
52	0xbe75187b	-0.2393512
53	0x3e3adc2f	0.18248056
54	0xbc8cc96a	-0.017185885
55	0x3e02d47c	0.12776369
56	0x3cbbdaf1	0.022931548
57	0x3d4994f2	0.04921431
58	0xbe2bab66	-0.16764602
59	0xbe50d20b	-0.20392625
60	0xbed08190	-0.40723848
61	0xbdd9971e	-0.106245264
62	0xbe922c07	-0.28549215
63	0xbe3b4f58	-0.18291986
64	0xbe5a86e7	-0.21340524
65	0xbf499001	-0.7873536
66	0xbf167207	-0.5876774
67	0xbf3142c4	-0.692425
68	0x3ee66fda	0.4500721
69	0x3e804f80	0.25060654
70	0x3e590feb	0.21197478
71	0x3ea1d521	0.31607917
72	0xbf056b16	-0.52116525
73	0xbe69f484	-0.22847182
74	0xbea7926e	-0.32728904
75	0xbeb1cd96	-0.34727162
76	0x3ce7c092	0.028290067
77	0x3c9aca05	0.018895159
78	0x3dee0f82	0.11624052
79	0x3cbe8165	0.02325506
80	0x3db0c461	0.08631206
81	0xbe339f7a	-0.17541304
82	0xbd9ec71c	-0.07752821
83	0xbf39fbfe	-0.72650135
84	0xbe12b306	-0.14326105
85	0x3da76d2e	0.08175121
86	0xbccecaf3	-0.025243258
87	0x3e104389	0.14088263
88	0x3d13b034	0.036056712
89	0x3de09cda	0.10967417
90	0xbd4b08b0	-0.049568832
91	0xbe924633	-0.28569183
92	0x3daf1c97	0.08550375
93	0x3c7aa5b2	0.015298294
94	0x3d914ee5	0.07095126
95	0x3d60721b	0.05479632
96	0x3e98514a	0.2974952
97	0x3e3dbdaa	0.18529382
98	0x3e7a1f2b	0.24425952
99	0x3e813ed1	0.25243238
100	0xbf6f181b	-0.9339616
101	0xbf8732a5	-1.056233
102	0xbf076da4	-0.52901673
103	0xbf560245	-0.83597213
104	0xbe90dc9a	-0.28293306
105	0xbe0e2114	-0.13879806
106	0x3c5ff027	0.013668097
107	0x3b9d92fa	0.0048087807
108	0xbe780f14	-0.24224502
109	0x3df991f6	0.12186043
110	0xbe5794d5	-0.21052869
111	0xbe48852a	-0.19582048
112	0xbf8a3730	-1.0798092
113	0xbf63d752	-0.8900043
114	0xbf53657b	-0.8257672
115	0xbee21e49	-0.4416373
116	0xbf72f7ef	-0.94909567
117	0xbf5f4f07	-0.8722996
118	0xbf7ad1d9	-0.9797645
119	0xbf3a019a	-0.72658694
120	0xbccc58a9	-0.02494462
121	0xbd8f0712	-0.069837704
122	0xbe41adcc	-0.18913954
123	0xbe35f27b	-0.1776828
124	0x3e2fe471	0.17176987
125	0x3e5d2732	0.21596983
126	0x3eb8c645	0.36088768
127	0x3eecf63b	0.4628161
128	0xbd9440d6	-0.07238929
129	0xbe0888d0	-0.1333344
130	0xbdf78f5a	-0.12087889
131	0xbeabff80	-0.3359337
132	0x3ed0a7bb	0.40752968
133	0x3ed84c3e	0.42245668
134	0x3ecfa664	0.40556633
135	0x3e5fa30c	0.21839541
136	0xbe1ebd92	-0.15502003
137	0xbee23ce0	-0.4418707
138	0xbe1f195b	-0.15537016
139	0xbeabddad	-0.33567563
140	0x3db5cb33	0.08876648
141	0xbcb799ca	-0.0224122
142	0xbd8dfe07	-0.069332175
143	0x3b7c7f3a	0.0038527981
144	0xbe4283b2	-0.1899555
145	0xbe8f3a92	-0.27974373
146	0xbe5ec549	-0.21754946
147	0xbe141629	-0.14461578
148	0xbdc9dba0	-0.09856343
149	0xbee11e53	-0.43968448
150	0xbf11c7c8	-0.56945467
151	0xbeb89c60	-0.36056805
152	0x3e98790e	0.29779857
153	0x3ec6f69a	0.38860017
154	0x3eb2352d	0.34806195
155	0x3df9dcc5	0.122003116
156	0xbe9fdd67	-0.31223604
157	0x3dc14415	0.09436814
158	0xbd8edd20	-0.0697577
159	0xbedcf1d0	-0.43153238
160	0x3e101fc0	0.14074612
161	0x3d959f2c	0.0730575
162	0x3e1e944a	0.15486255
163	0xbc8b4e0c	-0.01700499
164	0xbeafad3e	-0.3431186
165	0xbc8b45f4	-0.01700113
166	0xbd8d004a	-0.06884821
167	0x3de077c7	0.10960346
168	0x3e260372	0.16212252
169	0xbd0ca169	-0.03433362
170	0x3de192fc	0.11014363
171	0x3df2a138	0.11847156
172	0x3dff3f96	0.124633
173	0xbe217f17	-0.15771137
174	0x3d897636	0.06712
175	0xbe0290ae	-0.12750503
176	0x3d1ec01c	0.03875743
177	0x3e123706	0.14278802
178	0xbbbde350	-0.00579492
179	0xbe91170c	-0.28337896
180	0x3d6c4797	0.05768546
181	0x3e23d2ce	0.15998384
182	0x3dc9ed6a	0.09859736
183	0x3dcd7993	0.10032954
184	0xbd808378	-0.06275076
185	0xbe106b1b	-0.14103357
186	0xbe5fc3d2	-0.21852043
187	0x3e89342d	0.2679762
188	0xbe6fbdce	-0.23412248
189	0x3e901858	0.28143573
190	0x3e17a586	0.14809236
191	0x3e99a335	0.3000733
192	0xbee5c5eb	-0.44877562
193	0xbec74d8d	-0.38926354
194	0xbe052411	-0.1300204
195	0xbeba2306	-0.36354846
196	0xbcaf60a8	-0.021408394
197	0xbc583b41	-0.013197721
198	0xbe5ac6f5	-0.21364959
199	0x3d8e1e47	0.06939369
200	0xbd4913bd	-0.04909109
201	0xbd8eaff4	-0.06967154
202	0xbe2de80c	-0.1698305
203	0xbe57b9b5	-0.21066935
204	0xbe96855f	-0.2939863
205	0xbe7650f8	-0.24054325
206	0xbedcf780	-0.43157578
207	0xbead6888	-0.33868814
208	0xbe3cbbf4	-0.18431073
209	0x3d394368	0.0452303
210	0xbc9c6f05	-0.019095907
211	0x3da53fb1	0.08068789
212	0xbe7b168e	-0.24520323
213	0xbe81e93f	-0.25373265
214	0xbe982c7c	-0.2972144
215	0xbdbee320	-0.093206644
216	0xbcf20a68	-0.029545978
217	0x3c605bdc	0.013693776
218	0xbea76c7a	-0.3269995
219	0xbda8705d	-0.082245566
220	0xbdde366f	-0.10850226
221	0x3e1b16a8	0.15145361
222	0x3e335240	0.17511845
223	0xbc5b9215	-0.013401528
224	0x3da065ee	0.078319415
225	0xbe82d260	-0.25551128
226	0xbe9c78f0	-0.30561018
227	0xbf108199	-0.5644775
228	0x3dbb746f	0.09153067
229	0xbecd5961	-0.40107253
230	0xbceafbbf	-0.028684495
231	0xbe1ff64f	-0.15621303
232	0xbe885904	-0.26630414
233	0xbf1718a0	-0.5902195
234	0xbeda360a	-0.42619354
235	0xbe508fcf	-0.20367359
236	0xbeca8ac5	-0.39558998
237	0xbe29bcfd	-0.16576
238	0xbc3bb353	-0.011456328
239	0xbe80d793	-0.2516447
240	0x3d837a3b	0.06419798
241	0x3e2f547d	0.17122073
242	0x3e056c31	0.13029553
243	0x3c6af149	0.014339753
244	0xbd21e4b4	-0.03952475
245	0xbda261c9	-0.07928807
246	0xbd28f2fd	-0.041247357
247	0x3dd8cd6d	0.10586057
248	0xbed0f283	-0.40810022
249	0xbda68aee	-0.081319675
250	0xbca206b5	-0.019778589
251	0xbe4bbf15	-0.19897111
252	0xbe8529f3	-0.26008567
253	0xbe3a3772	-0.18185213
254	0xbf10a3d0	-0.5649996
255	0xbbfbcf87	-0.0076846513

classifier.0.bias f4 [250]
0	0xbe029cb8	-0.12755096
1	0xbdb7e5d4	-0.08979383
2	0xbdad3297	-0.08456915
3	0xbe050ecb	-0.12993924
4	0xbc7f1a0d	-0.015570176
5	0x3d72241b	0.059116464
6	0x3cb1a205	0.021683702
7	0x3d4279f6	0.047479592
8	0xbd9086c3	-0.07056954
9	0x3dd7a476	0.10529415
10	0xbe529dd5	-0.2056802
11	0xbd7068e5	-0.058693785
12	0xbe4e4177	-0.2014216
13	0x3cb21a3c	0.021741025
14	0xbd2343ec	-0.039859697
15	0xbd1eeddd	-0.038801063
16	0xbe03a32a	-0.12855211
17	0x3d8145e4	0.06312159
18	0x3db4b12c	0.08822855
19	0xbd88b3f4	-0.06674948
20	0xbe03c32f	-0.12867425
21	0xbe0e7fb4	-0.13915902
22	0xbbc1dda5	-0.0059163147
23	0x3d49d9d5	0.049280006
24	0xbcb430e2	-0.021995965
25	0xbd655b03	-0.055995
26	0xbcdfadb9	-0.027304517
27	0x3e2110aa	0.15729013
28	0xbe403f22	-0.18774083
29	0x3bc13a54	0.005896846
30	0x3c1bd089	0.009510168
31	0xbcb057da	-0.021526266
32	0xbd110c4a	-0.03541211
33	0x3d328d3a	0.043591715
34	0x3ce664e0	0.028124273
35	0x3bd44e9f	0.006479099
36	0xbce207d3	-0.027591622
37	0x3cfa94a1	0.03058845
38	0xbe0b25af	-0.13588594
39	0x3d4c336a	0.04985372
40	0x3e2fa016	0.17150912
41	0xbe699f8b	-0.22814767
42	0xbde64f58	-0.11245602
43	0x3df354b5	0.11881391
44	0xbd6db947	-0.058038022
45	0x3d396da0	0.045270562
46	0xbdb97a3e	-0.09056519
47	0xbe09cfb8	-0.13458145
48	0x3dd4897d	0.10377786
49	0x39bb7059	0.00035751125
50	0xbe0ead54	-0.13933307
51	0x3d1c5976	0.038171254
52	0xbd448776	-0.047980748
53	0xbc976387	-0.018480076
54	0x3bd9b82a	0.0066442685
55	0x3dee669d	0.11640666
56	0xbd11480d	-0.035469104
57	0x3d06b1cc	0.032884404
58	0x3d9f8c29	0.07790405
59	0xbdf29b4b	-0.11846026
60	0x3d1a6180	0.03769064
61	0x3d818d2d	0.06325755
62	0xbdeb580b	-0.11491402
63	0xbe296b36	-0.16544804
64	0x3e2feb7a	0.17179671
65	0xbd837f33	-0.06420746
66	0x3e4456b1	0.19173695
67	0x3c5b324e	0.013378693
68	0xbcf59a8a	-0.029980917
69	0x3cd34552	0.02578989
70	0xbc7d2263	-0.015450093
71	0x3e770563	0.24123149
72	0xbbbf0407	-0.0058293375
73	0xbddde44b	-0.10834559
74	0x3e8c9c5c	0.27463043
75	0x3c198bac	0.009371679
76	0xbdfb6e6e	-0.12276922
77	0xbd56002f	-0.05224627
78	0xbd59af13	-0.05314548
79	0x3c01c509	0.007920512
80	0x3cbd0e79	0.02307819
81	0xbd011801	-0.031517033
82	0x3d9b6c33	0.07588997
83	0xbd912267	-0.0708664
84	0xbd1c4b1c	-0.038157567
85	0x3d2c4857	0.042061176
86	0xbd391ea0	-0.045195222
87	0x3de6c8bc	0.11268756
88	0x3af142a5	0.0018406702
89	0xbe153130	-0.14569545
90	0x3e3308a7	0.1748377
91	0x3e3842be	0.1799421
92	0x3d16dbd2	0.03683073
93	0xbdad2261	-0.08453823
94	0xbe2d78f2	-0.16940668
95	0x3babe8e3	0.005246268
96	0xbda12ef2	-0.07870282
97	0xbd1ce791	-0.038306776
98	0x3e21cfa5	0.15801866
99	0xbe017244	-0.12641245
100	0xbdd08003	-0.10180666
101	0xbcc83fb4	-0.024444439
102	0xbe0314ad	-0.12800856
103	0xbcd42f2d	-0.025901401
104	0x3ca8bbf9	0.020597445
105	0xbdf70fe8	-0.12063581
106	0x3ce8c458	0.028413936
107	0x3d8a3f7c	0.0675039
108	0x3d2f144a	0.04274396
109	0xbd87f50e	-0.06638537
110	0xbda5f99d	-0.081042506
111	0x3da7d463	0.081948064
112	0xbdb480f6	-0.0881366
113	0xbe058e3f	-0.13042544
114	0x3e46cd90	0.19414353
115	0xbe0570b9	-0.13031282
116	0x3b2c790a	0.0026317262
117	0xbd10a84d	-0.035316754
118	0x3d8f24aa	0.06989415
119	0x3cef4195	0.029206077
120	0xbd97e8e8	-0.0741747
121	0xbe329767	-0.17440568
122	0x3e4a3dbb	0.19750111
123	0xbdd2cacd	-0.102925874
124	0xbdabb161	-0.08383442
125	0xbd8b4ce1	-0.06801773
126	0x3e19107f	0.14947699
127	0xbd63c8b6	-0.055611335
128	0x3d826a66	0.0636795
129	0x3d9b26c5	0.07575754
130	0x3bcbdc9e	0.006221368
131	0xbd02c058	-0.031921715
132	0xbc65c274	-0.014023412
133	0xbe30ca60	-0.172647
134	0x3e39d478	0.18147457
135	0xbd85e980	-0.06538677
136	0xbde83d7f	-0.113398544
137	0xbd76540d	-0.06013875
138	0x3d538653	0.051641773
139	0x3e1e1a46	0.1543971
140	0x3d9b8767	0.07594185
141	0xbdecd118	-0.11563319
142	0xbd48e788	-0.04904893
143	0x3c70210c	0.0146563165
144	0xbd9c6171	-0.07635773
145	0xbdad61fb	-0.08465954
146	0x3d5977d4	0.053092793
147	0xbdac1e60	-0.08404231
148	0xbde343e2	-0.11096932
149	0xbe413c77	-0.18870722
150	0x3d843195	0.064547695
151	0xbdce2d96	-0.100672886
152	0x3df13aca	0.11778791
153	0x3bdccddf	0.006738409
154	0xbceb3bee	-0.0287151
155	0xbd1fde44	-0.03903033
156	0x3da892fb	0.08231159
157	0x3cf37d04	0.029722698
158	0x3ccd92d1	0.025094422
159	0xbd05d148	-0.03267029
160	0xbe5b924a	-0.21442524
161	0x3e1d44fa	0.15358344
162	0xbca314e0	-0.019907415
163	0xbd46ccef	-0.048535284
164	0xbdb1ef49	-0.08688218
165	0x3c284199	0.010269546
166	0xbe018d5f	-0.12651585
167	0x3e420b34	0.18949586
168	0x3df9d1db	0.1219823
169	0xbdd6b805	-0.10484318
170	0xbe180bc0	-0.14848232
171	0xbd47b8a1	-0.04876006
172	0xbb0b3841	-0.0021243247
173	0xbdd0820d	-0.10181055
174	0x3d85fff1	0.065429576
175	0x3d9226fc	0.07136342
176	0xbc12ecb7	-0.00896757
177	0x3d30743b	0.043079596
178	0x3c695bff	0.014243125
179	0x3e296c1b	0.16545145
180	0x3d4c8045	0.049927015
181	0xbdeecbb9	-0.11659951
182	0xbd2ca7ca	-0.042152204
183	0xbe03fe6a	-0.1289002
184	0xbdefdb16	-0.11711709
185	0x3e273286	0.16327867
186	0xbd672b3a	-0.05643771
187	0xbe36d70b	-0.1785547
188	0xbd822906	-0.06355481
189	0xbd3a14bc	-0.04542993
190	0x3e42b584	0.19014555
191	0xbc1ff8a5	-0.009763871
192	0x3d6705c8	0.056401998
193	0x3d134172	0.035951085
194	0x3e13ea46	0.14444837
195	0x3c558559	0.013032281
196	0x3d677234	0.056505397
197	0xbe03c524	-0.12868172
198	0x3b8eebc1	0.0043616
199	0xbd821944	-0.06352475
200	0x3d151d2a	0.036404766
201	0xbdff06ab	-0.12452444
202	0x3dd768dd	0.10518048
203	0xbe0088fa	-0.12552252
204	0xbd930cf1	-0.07180203
205	0xbd1bb2eb	-0.038012426
206	0xbc411ca9	-0.011786618
207	0xbe379b24	-0.17930275
208	0xbd9b7fff	-0.07592773
209	0xbcce1b6e	-0.025159564
210	0xbdc1aace	-0.094564065
211	0x3d833aed	0.064077236
212	0xbd40f99f	-0.047113057
213	0x3df76323	0.12079456
214	0x3d65a3cb	0.05606441
215	0xbd759dfd	-0.059965122
216	0xbe2438d4	-0.16037303
217	0xbe7bc481	-0.24586679
218	0x3dad1384	0.08450988
219	0x3c708a07	0.014681346
220	0x3da4f284	0.08054069
221	0xbd6b1339	-0.05739138
222	0xbc917133	-0.017754173
223	0xbb2e953e	-0.0026639248
224	0xbe7edf5f	-0.24889897
225	0x3e1dd2c3	0.1541243
226	0x3dbb2197	0.09137266
227	0x3d14961c	0.036275968
228	0xbc70e4e0	-0.014703006
229	0x3b78b3b1	0.0037948901
230	0xbba5e742	-0.0050629685
231	0xbd0f0f1e	-0.034926526
232	0xbdaaa550	-0.08332312
233	0xbd6a2086	-0.057159923
234	0x3e140608	0.14455426
235	0xbe39238f	-0.18079971
236	0x3df2e61b	0.118602954
237	0x3e31201f	0.1729741
238	0xbe076288	-0.1322118
239	0x3e77bdf9	0.24193563
240	0xbd51ba7e	-0.051203243
241	0x3da18a1f	0.07887673
242	0x3c3ad6d9	0.011403763
243	0xbd9ba481	-0.07599736
244	0x3dc0f243	0.09421208
245	0x3cb91504	0.022593029
246	0x3d70563b	0.058675986
247	0xbe15d074	-0.146303
248	0xbdbbe0ae	-0.091737136
249	0xbdd3759a	-0.10325165
