model-dz/saved_model/MFCCNN_250_state_dict.pt (torch, 279008 bytes, 20 tensors)

backbone.0.conv.weight f4 [8, 1, 3, 3]
00000000: aeb2 98be fce0 04bf f427 f23c 2307 b63d
00000010: b27d babe 6fcb 1b3e f4cb 52be 5884 2ebf
00000020: 9a8f 37be 0c5b 85be 6b24 d5be 6301 40bf
00000030: b99b a2bd 9199 bdbd bd25 ecbe 07cf 52be
00000040: 9ea2 2abe a04a 63be b5b8 813e 4ff8 9a3e
00000050: 0154 8c3c 84da f1be 311d 23bf c967 cebd
00000060: d812 483e 6d76 4e3e 0aa2 b63d f586 c6be
00000070: b5b0 d6be 4276 27be 15ea d83e 8740 153f
00000080: 0e26 4e3e b08f 30be e1b2 a4be cec6 febd
00000090: 10a1 f53d 7226 773e b3e7 bd3d d57e 023f
000000a0: f900 ca3e 0957 623e 2490 5dbe c3dd c7be
000000b0: cad3 edbe cc44 c3be 7911 f9be 81f0 b8bd
000000c0: c5aa 81bd f868 06bd 54de 4a3c 409a 173f
000000d0: 2dda 453f f522 873e 15e8 0e3e 3e72 083e
000000e0: e734 a83a 70c5 a33e 0328 353f 840c 823e
000000f0: b46b d23d a90f c13e af7a a73e fde9 543e
00000100: 2bf3 373f 754e 263f bf2d 5b3e 28d5 f1bd
00000110: b5b8 463e b542 673e ebfa dc3e 7a38 3c3e
-0.29823822 -0.519058 0.029560067 0.0888808 -0.36424023 0.15214323 -0.20585614 -0.6817069
-0.17925873 -0.26046026 -0.41629347 -0.75002116 -0.07939858 -0.09257806 -0.46122542 -0.20586787
-0.16663596 -0.22196436 0.25336233 0.3026757 0.0171299 -0.47237027 -0.6371642 -0.10078389
0.19538438 0.20162363 0.08917625 -0.3877484 -0.41931692 -0.16353706 0.4236609 0.58301586
0.20131704 -0.17242312 -0.32167724 -0.12440263 0.11993611 0.2413576 0.09272709 0.5097478
0.39453867 0.22103514 -0.21637017 -0.39036378 -0.46450645 -0.38138425 -0.48646143 -0.090302475
-0.063314 -0.03281495 0.012382109 0.5921974 0.77286035 0.26393858 0.1395572 0.1332483
0.0012833149 0.3198657 0.7076418 0.25400174 0.10274449 0.3770726 0.32710788 0.20792384
0.7185542 0.64963466 0.2140417 -0.118082345 0.19406398 0.2258404 0.43160185 0.18380919

backbone.0.conv.bias f4 [8]
00000000: 035a 313e 2964 073b e302 083d 5bec afbe
00000010: 93f3 81be 8589 873e 024b dabc a7ed dfbc
0.17319493 0.0020659065 0.033205878 -0.34360012 -0.25381145 0.26472107 -0.026647095 -0.027335001

backbone.0.bn.weight f4 [8]
00000000: 477e 053f b9fe 453f 1383 9c3f 5798 0340
00000010: a967 d03f 05a3 153f eeba c93f 3eb4 1b3f
0.5214581 0.773418 1.2227501 2.056173 1.6281635 0.58451873 1.5760171 0.608219

backbone.0.bn.bias f4 [8]
00000000: 0374 8e3d 4ae2 273e d1c3 923e 21af 2bbe
00000010: 968b c03e 4a32 123f d750 e43e 5545 8c3e
0.06955721 0.16394916 0.2866502 -0.16766025 0.37606496 0.57107985 0.44592926 0.27396646

backbone.0.bn.running_mean f4 [8]
00000000: b115 8cbf f652 8440 259d 6841 bb56 78c1
00000010: 2d49 53c1 72cb 0940 c47a 45c1 2027 a63e
-1.094412 4.135127 14.538365 -15.521174 -13.205365 2.1530423 -12.342472 0.32451725

backbone.0.bn.running_var f4 [8]
00000000: cd6f 9d43 0b3e cb44 e7aa b445 3c20 ba45
00000010: e1b9 b145 3e60 2e44 ce34 a145 753c 2f44
314.87344 1625.9388 5781.363 5956.0293 5687.235 697.5038 5158.6006 700.94464

backbone.2.conv.weight f4 [16, 8, 3, 3]
00000000: 184a 1bbf 838a 23bf b73b b7be 428c b4be
00000010: c2d4 8abe 517a 6b3d 25d6 323e 4304 74bd
00000020: 9272 e5bd 2d50 d9be b80e f7be 94a3 8ebe
00000030: 5d6f 6bbd a8bc ef3a 0fb7 edbd 237f f5bd
00000040: af72 bebe a1f9 17be a475 283e 0fd2 273e
00000050: 5aee f13d 06fc c1be 2d9f ec3d e47b e43d
00000060: 4fa1 e1be e4f6 55be d2d7 76be 97fd 4cbf
00000070: c5b2 3bbf c5ff 2fbf dcc9 ecbe c168 2abe
00000080: c72c 66be a3de eebe 3126 f0be bdd3 9abe
00000090: e9c0 96be daef 94be 9f2d 7cbe 319b ffbe
000000a0: 1b9c 90be 5398 e6be 0a43 88be 2940 afbd
000000b0: 94c5 473e 4f49 10be 4fb9 d4bd f56f 0fbe
000000c0: 715a 9a3e 21bd ac3c 7f0e 56bc bbea aabc
000000d0: 9a9f 813e 31d4 8abd 3867 4e3e 79a5 013e
000000e0: 2194 853e 248e d5be e070 40be dcf2 cbbd
000000f0: 4eec 4a3d ff0f 443e ac0a 143e e6fb b03d
00000100: 47bd 6c3c 7dde 803d 3d93 4bbe 83f9 cc3d
00000110: 6ea7 83bb dce0 a93d 4a7b 83bd 7ea1 a23c
00000120: b1a0 273e 049c f53d 7178 873d 59fc f33e
00000130: 5492 8a3e a30e 103f 86c3 af3c 5ba6 ce3d
00000140: 92b0 e53d b780 1c3e 0159 e13c 2c1c 583e
00000150: 3b19 cf3c 25b8 e83d 0c57 133e fad1 cabd
00000160: 310b a6bd 4fad de3d 0132 4f3d 8c0a 9cbd
00000170: da65 1abe 64be c8be b845 a5be b47d 02be
00000180: fa08 503e 1f13 993e 9364 3abd e1be 933e
00000190: 4590 653e 0e39 ab3e cbb0 b23f 85c0 8e3f
000001a0: ecf5 c73f c064 8f3e 8d44 bb3d 3582 68bd
000001b0: 72dc 8f3e 84e5 e03d bb4d c23e f0e7 c23e
000001c0: 741a 4d3e ba5a a23e 9214 c53e c107 443e
000001d0: a689 5ebe fb33 893e 6876 983e 30a6 173e
000001e0: 83c2 cc3e e0b3 693e 1747 ac3e 01a3 53bd
000001f0: 0aa1 b23e c442 c43e 7fc4 0abc 102a 3ebd
00000200: 6429 2f3d 22d7 29be 5f3c c23d dcbf 71bd
00000210: f370 e2bd 2f98 f7bd b28d 3ebe ee7e 243e
00000220: 58d6 bdbb 27ed e43d 40d9 f0bd d1fe 40be
00000230: 1e22 af3d 96c2 88bd c26d e5bd ad07 58bd
00000240: dd79 cc3d 5a81 d2bc 6717 173e 4a35 bdbd
00000250: bf69 e6be ddba 6cbf 60df 7fba c8c7 a2bd
00000260: 4101 b5be 3650 313e ff63 e53b 9dba 473e
00000270: ffe5 01bf 74db 19bf d138 87bf e4c4 2cbe
00000280: d745 f0bd 47d2 2ebf 6753 01be dfa2 1abe
00000290: 82c3 4fbe 10b9 b9be f0a8 08bf e4c8 36bf
000002a0: a014 a2be d693 b3be 68ae 25bf 0262 eb3d
000002b0: 7557 663d 2ee0 14be cc40 35bd a658 babe
000002c0: a5b9 9dbb b367 703c 0256 853e 6f66 8cbd
000002d0: d2b8 b4bd 4946 debd 5d2a bdbe d245 403e
000002e0: 7f55 5e3e 2040 553e 597b 13be 98cd 91be
000002f0: d7cb d63d 4a11 94bc bce8 86bc 2e1f 433d
00000300: 9051 55be 9af1 83be 4c5e dbbe d8f4 13be
00000310: d6af 5d3d 57ce c5be d50f 123d a3ce 05be
00000320: c3e0 cebe 9b17 783e 8268 ba3e 34b3 b33d
00000330: b92b 5e3e f7a0 9a3e 5851 843e 08f6 7ebd
00000340: 02e4 5bbe 773b cfbe 77e4 9d3e 316a 7c3e
00000350: 330b a3ba 83e5 103e 7ad7 d33d fad3 3a3e
00000360: 54be d8bd b293 83bd b41e 693e 4942 adbe
00000370: 2b00 04be 9250 a6bb 58ad 34bd 5f12 1abe
00000380: ddf4 e5bc 3a9d b7be 223a 5ebe 0e19 3b3e
00000390: 7520 e1be 7c31 c9bd d762 4abe 005b 24bf
000003a0: 01f0 c9be 6c77 35be 0859 1dbd 8a37 93be
000003b0: a711 3a3e 70bc f23d 3011 be3e a7a1 82bc
000003c0: 0bd0 a0bf 1b93 93bf f784 1abf 8b32 5f3e
000003d0: 27a4 5dbc e7bf 3e3e e1b3 b43e dc10 833e
000003e0: bf48 df3e 0f1c 043f 0afd ae3e e61b 073f
000003f0: 73fb eabc b486 3cbe e480 0dbe a93b 1e3e
-0.60659933 -0.6388323 -0.35787746 -0.35263258 -0.27115446 0.057489697 0.17464502 -0.059574377
-0.11203493 -0.42443982 -0.48253417 -0.27859175 -0.05747925 0.0018290477 -0.11607181 -0.1198714
-0.37196872 -0.1484132 0.16451126 0.16388725 0.1181304 -0.3788759 0.11553798 0.11156443
-0.4406838 -0.20894963 -0.24105766 -0.8007445 -0.73319656 -0.6874965 -0.46247756 -0.16641523
-0.22478019 -0.46654233 -0.46904138 -0.30239668 -0.29444054 -0.29089242 -0.24626778 -0.4992309
-0.282441 -0.4503809 -0.26613647 -0.085571595 0.19508964 -0.14090465 -0.10386907 -0.14007552
0.30147126 0.021086277 -0.01306498 -0.020863881 0.2531708 -0.067787535 0.20156562 0.12660779
0.26089576 -0.41710007 -0.18793058 -0.09958431 0.049541764 0.19146727 0.14457196 0.08641796
0.014449424 0.06292436 -0.19880386 0.10008528 -0.004017762 0.08294842 -0.0642 0.019852396
0.16369893 0.11992648 0.06614769 0.47653463 0.27064764 0.56272334 0.021455538 0.100903235
0.11215319 0.15283476 0.02750826 0.21104497 0.025280586 0.11363248 0.14388674 -0.09903331
-0.08107603 0.108729 0.050584797 -0.07619199 -0.15077916 -0.39207757 -0.32279754 -0.12743264
0.20315924 0.298974 -0.04550607 0.28856567 0.22418316 0.33441967 1.3960203 1.1152502
1.5621924 0.28006554 0.091439344 -0.0567648 0.28097874 0.10981277 0.3794993 0.3806758
0.20029622 0.31709844 0.38492256 0.19143583 -0.21732196 0.2679747 0.29777837 0.14809489
0.3999215 0.22822523 0.33647987 -0.051669125 0.34888488 0.38332188 -0.0084697 -0.046426833
0.042764083 -0.16585973 0.09484171 -0.059020862 -0.110566996 -0.120895736 -0.1860874 0.16064045
-0.005793374 0.11178046 -0.11760187 -0.18847205 0.08551429 -0.06677739 -0.11202575 -0.052741695
0.09984181 -0.025696445 0.14755021 -0.0923868 -0.45002553 -0.9247263 -0.00097607635 -0.079482615
-0.3535252 0.17315754 0.007000446 0.19504781 -0.5074157 -0.60100484 -1.0564214 -0.16871983
-0.11732071 -0.6828961 -0.12629472 -0.15101193 -0.20289424 -0.36274004 -0.5338278 -0.71400285
-0.3165636 -0.35073727 -0.6471925 0.11493303 0.05623575 -0.14538643 -0.04425125 -0.36395758
-0.0048133903 0.014673161 0.2604218 -0.06855475 -0.08824314 -0.108532496 -0.36946383 0.18776634
0.21712302 0.20825243 -0.14402522 -0.28477168 0.10488098 -0.01807465 -0.016468398 0.047637157
-0.20831895 -0.25770265 -0.4284538 -0.14448869 0.05412277 -0.38633987 0.03565963 -0.13067107
-0.40405855 0.24227755 0.36407858 0.08774415 0.21696366 0.3020093 0.2584331 -0.062246352
-0.21473697 -0.40475056 0.30838367 0.24649884 -0.0012439251 0.14150052 0.10343833 0.18244925
-0.10583177 -0.06424655 0.22765619 -0.33839634 -0.12890689 -0.0050755227 -0.044110626 -0.1504607
-0.028070861 -0.35862142 -0.21701863 0.18271276 -0.43970075 -0.098238915 -0.19764267 -0.64201355
-0.3944092 -0.17721337 -0.038414985 -0.2875331 0.18170796 0.11852348 0.37122488 -0.015946222
-1.256349 -1.1529268 -0.6035914 0.21796624 -0.0135279065 0.18627892 0.35293487 0.255988
0.43610188 0.51605314 0.34177428 0.52776945 -0.028684353 -0.1841076 -0.13818699 0.15452446

backbone.2.conv.bias f4 [16]
00000000: 1150 943d a19e ec3e 7d16 c83e cfe5 ce3b
00000010: c452 61bc a6b4 393d 7bdb 4cbd d4eb 8cbc
00000020: 6054 51bd bf95 27be 0f7c 5b3e 848f 9b3e
00000030: d718 0bbe 97b0 ca3d b801 c13d f5dd 103d
0.07241834 0.46214774 0.39079657 0.0063140164 -0.013752643 0.045338295 -0.050014 -0.017202295
-0.051105857 -0.16365717 0.21434043 0.3038293 -0.13583694 0.09896963 0.09424156 0.035367925

backbone.2.bn.weight f4 [16]
00000000: e2ed c13f 13db 5d3f e941 c33f a9ec 313f
00000010: beca 523f 72f8 b93f 6017 4a3f bf6c 943f
00000020: 456a be3f 3d1e 6c3f 615c 5b3f 7e1d 583f
00000030: c9c7 653f a427 aa3f 6ce3 5b3f d6db 743f
1.5150721 0.86662406 1.5254489 0.6950174 0.8234061 1.4528944 0.7894192 1.1595687
1.4876181 0.9223364 0.85687834 0.8442 0.8975797 1.3293347 0.85893893 0.95647943

backbone.2.bn.bias f4 [16]
00000000: c418 aabe 6174 ba3e 37ee b9be dc0b 33bc
00000010: c4b8 3d3e 3f3b 31be a78a cc3e 1bba bebc
00000020: 0525 fdbc 4d8d d93d 9369 59be 6694 b43d
00000030: 1306 acbd 77a7 013e 21b0 41be 2503 42be
-0.3322202 0.36416915 -0.36314556 -0.01092812 0.18527514 -0.17307757 0.39949533 -0.023282101
-0.030901441 0.10622654 -0.2123168 0.08817367 -0.08399596 0.12661539 -0.18914844 -0.18946512

backbone.2.bn.running_mean f4 [16]
00000000: 693a 8bc0 707c be40 9dc7 eabf 1350 033e
00000010: eaf4 54bf 5546 c6bf aa9d 04c0 bd15 e0bf
00000020: 4361 f3c0 dde8 dfbf bd23 6440 2194 4fc0
00000030: fbd6 573f 38d7 723e a32e 4c40 b4f2 9540
-4.35088 5.95269 -1.8342167 0.12823515 -0.8318621 -1.5490214 -2.072123 -1.7506634
-7.605623 -1.7492939 3.5646813 -3.243416 0.8431241 0.23714912 3.1903465 4.685877

backbone.2.bn.running_var f4 [16]
00000000: b45c 5a40 e2af 8240 cde7 8f40 d35a 0d3f
00000010: ac86 833f ab55 f13f 38cd 2d3f 5e48 a33f
00000020: 07ef 6940 a7bf b83f a349 b43f 3115 743f
00000030: 5d59 a13f 9709 3540 6c2b 1640 a15f 1a40
3.4119081 4.08397 4.497046 0.5521671 1.0275474 1.8854269 0.67891264 1.275646
3.655214 1.4433488 1.4084972 0.95344836 1.2605397 2.8287103 2.3464003 2.4120867

backbone.4.conv.weight f4 [16, 16, 3, 3]
00000000: 34a1 11bf eabb 65bf d934 3c3d 4c75 993c
00000010: c30c 9cbe d8c7 6fbe 6c48 28be 3e63 b2bd
00000020: 604e 0abd 91ac 16be 4c33 d7be 8c6f 58be
00000030: 3a11 c33c bf55 a0bb e949 89bd 5b45 1c3e
00000040: 4f88 d1bd 4400 8ebd 0b8b 0f3e 4234 b2be
00000050: 871f 313e 2b52 8ebd 7272 c1be 9925 c6bd
00000060: 281f a7bd 3b46 0a3e 9a72 403e b685 c1be
00000070: 7752 7dbf 3a50 0bbe bd62 2bbd 64b2 253d
00000080: b276 233e f5ba 083e 8cbd 03bd dffa 38be
00000090: 6f4d d0be b8fd e6be aa5b 16be befa 773e
000000a0: 388d eb3e f5a5 843e b2d9 1a3e 9ff6 b23d
000000b0: cdcf 14bd 2f8f 3d3d ef43 a3be aa34 51be
000000c0: 00a6 ee3d 114a 50be 622b d1bd e00d 263c
000000d0: 7494 a33c 1f52 ed3d 3df2 6cbe abd5 34bf
000000e0: 8b36 7fbe ffc5 083e 54b4 0d3d ee59 003d
000000f0: fade c6bd c47c 853e a7b3 3b3e 028e a53e
00000100: 75a8 ec3e 777c 443e 8b6f 113d dc77 27be
00000110: 5c0f 1bbe fd42 153e 0767 4e3e 53bd c8bc
00000120: ab79 db3e 0fa1 473f 1afd b83e 69a2 e3bd
00000130: e294 acbd 57de 98bc 82a9 713d 9591 4a3e
00000140: 3408 d53d a74f e5be 2d90 6dbf 809b 1fbf
00000150: fc3f 6dbe 98d1 90be b821 b9bc 08f6 f9bb
00000160: 72a3 a33e c5fd 3c3e 5844 ee3d b04d cebe
00000170: 923b e4bd 2d82 943d 925c 083e b33d eabb
00000180: c1df ecbd 02d2 45be c64a 093e da04 3ebd
00000190: 818e 75be 198a 983b 5cb5 a8be 6bb7 90be
000001a0: dab0 0ebe e81d 87be 8238 14be e719 123e
000001b0: 3e62 913e 4ce7 b0be 2c0a 183e ea01 813d
000001c0: e1ff 19be 8a00 b83c 5e0c 1abe abde 66be
000001d0: 0bcf 883d 8ddd 32be 826b bdbe f222 14be
000001e0: 8977 713e 805c c7bd f0c7 ddbd d56c da3d
000001f0: 26a3 bf3b 045c cdbd 911a 15be 3230 91be
00000200: b70e dc3c 408c 373d ddc0 21be 38a7 32bd
00000210: 4ee4 bfbe 53cb febe 2882 37be ca84 87be
00000220: 1a85 2cbf 22b8 383d d50f 19bb 14fd 4fbe
00000230: 5647 31be ba6d d4be a22e 95be 6223 973c
00000240: 783e bb3d c775 8f3e c50b 783d 4778 563e
00000250: 0231 7c3d bf67 4cbe d11b b73d 4110 853c
00000260: de36 e8bd ebfd 2cbd 24db 1cbc 6b0b 86bd
00000270: d8aa f43d 6faf b73e 75bf 8e3e 1dc0 1ebd
00000280: d4fb 2a3e 8de1 69bd 015a 003f c8e8 113f
00000290: 3ab8 f23c e17d 823e defb 65bd 91af 85be
000002a0: deda 0fbe d5d1 5cbe 85a4 03be 9894 9c3c
000002b0: 9eaf 903e 7f2f a93e b575 4b3e 2fd0 7c3e
000002c0: b1e2 6c3d 66f9 933e 3bce 263c 52eb f9bd
000002d0: 3268 3ebd cf4d 66be 41db 36bd 8eae 83be
000002e0: 2e63 93be 8dad efbd 559f ae3e 6f26 0a3e
000002f0: f6b4 b0bd 16a2 86be 30c3 0dbf 9cd1 e2be
00000300: f758 0bbd b3a3 993c 06bd 233d 88f1 103e
00000310: fb01 823e 2e47 ad3d 4f0d 193d cab9 493e
00000320: 303b b33d b3b8 123c 6b7f 5dbe 9a8d 73be
00000330: 3e79 d63d 4ec1 ab3d 3ead 0dbe 3df8 0fbe
00000340: 4eb7 da3d 4b3b 8c3e e97d c13d 9b08 aebd
00000350: 29f1 4dbe 9d77 6b3d 364e c2bc 9bfd b4bd
00000360: 014d a7be a487 f3be 87b2 c93c 44c0 8c3d
00000370: b173 a53e d2a0 a73e 38a9 20be c6a4 823a
00000380: e590 47bc e52f 9cbe 81a9 953e 2f5f 8d3e
00000390: 7ee6 513c 3ab2 8d3e d73e 163d cf85 873d
000003a0: 8c65 973e fabd 16bd 27c8 d7be 388c e4be
000003b0: 7153 dabd 5f08 1bbe d31a 99be d0da 44be
000003c0: 2316 3abe bba6 3b3e 45f3 5fbd b458 8ebe
000003d0: bebe 8fbe 318b 9ebe 5620 5cbe 06b1 e9bc
000003e0: 9d92 4abc 195d 18bb 6a80 a13e 2ad2 0fbc
000003f0: 65bd 193e 3620 ce3e 304c ad3e 469a e03e
-0.568866 -0.8973986 0.045948837 0.01873269 -0.30478486 -0.23416078 -0.16433877 -0.08710335
-0.03376615 -0.14714266 -0.42031324 -0.21136302 0.023811925 -0.004893034 -0.0670355 0.15260832
-0.10231077 -0.069336444 0.14017884 -0.34805495 0.17297183 -0.06949266 -0.37782627 -0.0967514
-0.081602395 0.13503353 0.18793717 -0.37797326 -0.98953956 -0.13604823 -0.04184221 0.04045333
0.15963247 0.13352568 -0.032163188 -0.1806445 -0.40684077 -0.45115447 -0.14683405 0.24216744
0.4600618 0.25907865 0.15122107 0.087384455 -0.036330987 0.04627913 -0.31887767 -0.20430246
0.11652756 -0.20340754 -0.10213353 0.010135144 0.019968249 0.11587929 -0.23139282 -0.7063853
-0.2492315 0.1335678 0.034595802 0.031335764 -0.09710498 0.2607175 0.1833025 0.32334906
0.46222273 0.19188105 0.035506766 -0.16354316 -0.15142578 0.14576335 0.2015649 -0.02450434
0.42866263 0.7798013 0.361306 -0.11114962 -0.08426835 -0.018660707 0.058999546 0.19782098
0.10401955 -0.44787332 -0.9279812 -0.6234665 -0.2316894 -0.28284907 -0.022599086 -0.007628206
0.31960636 0.1845618 0.11634129 -0.40293646 -0.11144175 0.072513916 0.13316563 -0.0071484684
-0.11566115 -0.19318393 0.1340743 -0.046391346 -0.23980142 0.0046551344 -0.32950866 -0.28264937
-0.13934651 -0.26390004 -0.14474681 0.14267693 0.28395265 -0.34551466 0.1484763 0.06299193
-0.15039016 0.022461195 -0.1504378 -0.22545879 0.06680115 -0.17467327 -0.36996084 -0.14466456
0.23580755 -0.0973444 -0.10829151 0.10665289 0.005848306 -0.10027316 -0.14560916 -0.28357083
0.026862485 0.044811487 -0.15796228 -0.043616503 -0.3747887 -0.497645 -0.17920744 -0.26468498
-0.67390597 0.045097478 -0.0023355384 -0.20311385 -0.17312369 -0.41489965 -0.2913714 0.018449489
0.09142774 0.28019544 0.0605581 0.2094432 0.061570175 -0.19961451 0.089408524 0.016243102
-0.1133859 -0.042234343 -0.009573732 -0.065451466 0.11946648 0.35876033 0.27880445 -0.038757432
0.16697627 -0.057099868 0.50137335 0.5699582 0.029628862 0.25486663 -0.056148402 -0.2611051
-0.14048335 -0.2156442 -0.12855728 0.019113824 0.28258985 0.3304405 0.1986912 0.2468879
0.057833377 0.28901213 0.010181005 -0.12203087 -0.046486087 -0.22490619 -0.04464269 -0.25719112
-0.28786606 -0.11703024 0.34105936 0.13491224 -0.086282656 -0.26295537 -0.5537596 -0.44300544
-0.03402039 0.018754816 0.03997519 0.14154637 0.25392136 0.08460842 0.037366208 0.19699779
0.087515235 0.008955169 -0.21630637 -0.23784485 0.10472344 0.08386479 -0.13835618 -0.14059539
0.10679494 0.27388987 0.094478436 -0.08497735 -0.20111527 0.05748712 -0.023718935 -0.08837434
-0.32675937 -0.47564423 0.024621261 0.06872609 0.32314828 0.32739884 -0.15689552 0.0009967319
-0.012180542 -0.3050529 0.29230884 0.27611682 0.012811301 0.2767504 0.036681022 0.06617319
0.29569662 -0.03680227 -0.42144892 -0.44638228 -0.106604464 -0.15139912 -0.29903278 -0.19224095
-0.18172507 0.18325321 -0.05467536 -0.2780205 -0.28075212 -0.3096557 -0.2149671 -0.028526794
-0.012364057 -0.002324885 0.31543285 -0.008778134 0.15013655 0.4025895 0.3384719 0.438677

backbone.4.conv.bias f4 [16]
00000000: fcae 5f3d 7055 d43d 91b0 4cbb 8d71 963d
00000010: 27f7 923e e6db 513d 5c78 2dbb ea1d 553e
00000020: 5f15 4d3e c129 05bd d30c 883e e194 3a3e
00000030: 6700 673e ea7e c9bc 52ea 413e 3982 453e
0.054610237 0.103678584 -0.0031233171 0.07345877 0.28704187 0.051235102 -0.0026469445 0.20812193
0.20027684 -0.032510523 0.26572284 0.18220855 0.22558747 -0.02459665 0.18937042 0.19287957

backbone.4.bn.weight f4 [16]
00000000: 20de 5640 4aa4 5a40 ae78 4d40 3559 4740
00000010: a0ee 2640 9761 3140 bf6c 6140 28e2 4740
00000020: fdeb 4240 48f6 4f40 8317 3e40 086c 5640
00000030: 23bb 4840 23b7 4b40 5582 4240 7e37 5b40
3.3573074 3.4162774 3.2104907 3.1148198 2.6083145 2.7715814 3.5222623 3.1231785
3.0456536 3.2494068 2.970185 3.3503437 3.136422 3.1830528 3.0392048 3.425262

backbone.4.bn.bias f4 [16]
00000000: 0407 453f 185b 7b3f 2333 673f 7237 5a3f
00000010: 7d25 913f 7fad 823f f553 9d3f f3ec 963f
00000020: 4b2d 4b3f 9855 903f 6a87 933f 3077 903f
00000030: 97c6 6c3f dd0f b03f 02a0 703f 7f11 103f
0.7696383 0.98185873 0.90312403 0.8524085 1.1339566 1.0209197 1.2291247 1.1791061
0.79365987 1.1276121 1.15257 1.1286373 0.92490524 1.3754841 0.9399415 0.56276697

backbone.4.bn.running_mean f4 [16]
00000000: 7f82 1dc0 ec2d e83e f513 53c0 9f73 aebe
00000010: 2f69 0f40 0f93 15be 848b e43f 6f6d 133f
00000020: dc47 08bf ad8f 6b40 6584 823e 34b0 7ec0
00000030: 3ce4 3abf f00f ef3e 8598 3ac0 e210 5bbd
-2.4610898 0.45347536 -3.298093 -0.34072587 2.240795 -0.1460688 1.7855077 0.5758886
-0.5323465 3.6806443 0.25491634 -3.9795046 -0.7300451 0.46691847 -2.915559 -0.053482898

backbone.4.bn.running_var f4 [16]
00000000: 2713 0140 6d43 3040 87fc f93f a1e5 1b40
00000010: f39f d03f 9b74 f43f b2b2 7340 2f80 f43f
00000020: fd76 0a40 f139 0940 1ea9 ad3f 8a7f 4d40
00000030: 34c0 0a40 e86a 1640 70d8 d73f b8fd 4340
2.016794 2.7541153 1.953019 2.4358904 1.6298813 1.9098085 3.8077817 1.9101619
2.1635125 2.1441615 1.3567235 3.2109094 2.1679811 2.350275 1.6862926 3.0623608

classifier.0.weight f4 [250, 256]
00000000: 3924 b5be e236 f7be 9c03 3abf b894 1bbf
00000010: a8ea 4abf 5ef5 03bf f9aa 29bf 0099 3cbf
00000020: b947 08be 566b 98be ec17 c5be fff0 a23d
00000030: 2605 633e f5fa 643e 1eb1 8d3e 1bed 2a3e
00000040: b1e8 0ebf fc9f edbe 8f63 45bf df7f 3fbf
00000050: 1520 4cbe 5ade a23c 9f86 15be 573b 53be
00000060: 8738 993e a444 493d e854 343d ecba c63e
00000070: 5ee7 8abe 2b75 dfbd 45f9 9f3c e2a3 9fbe
00000080: 00dd b8bd 7965 453e 0f17 853d 89bc a2bd
00000090: 9eac dcbe 1ee6 72be e1e7 a8be 5470 90bd
000000a0: c23e ce3c dfd8 02bd 789a e9bd 604d 9d3b
000000b0: 0531 10be 0202 893e 6ad3 0b3e e09d 623e
000000c0: ce0a 963e 0dc2 583e ef4f 5f3e d927 843e
000000d0: b900 85bd ab89 6abe cfae 583d ad3d b3be
000000e0: 6438 b13d 67e3 76be 14d1 283e 280a 1a3d
000000f0: 0196 f2bd 41e6 173d c56c 47be 4e49 983d
00000100: dd9d b73d 7a46 bebc 19b3 c7bd ba43 19bd
00000110: 20cc b53d 439e 18bd 8a66 833e c154 71bc
00000120: a5d5 84be f980 83be b85e 6fbe a25e b5be
00000130: 8073 d4bc 7af5 c5be 92aa 30be d3e9 afbe
00000140: 6763 c3be 699e d0be cfb0 10bf 099a 2fbf
00000150: 0846 9e3d 13cc 623e f9db 7b3e 9bd3 863e
00000160: 1382 11bf 84f8 3ebe e119 c7be d9d2 efbe
00000170: aa50 0fbe 745d 7e3d 990c bb3b 5d8d 1d3e
00000180: 0f27 2bbf a806 96bf 7dc0 92bf c509 2abf
00000190: 468e 5f3e 72e5 683e bf57 493e d0e7 2d3d
000001a0: 3ffd 1ebf 0cd5 f7be be80 15bf 8f9d 3fbf
000001b0: e6e0 49bb fc8b 34be 3d4e dcbe 5e99 febd
000001c0: e573 bebe 1d70 21be cf57 86be bf77 90bd
000001d0: 89f5 98bf 0d89 43bf c50f a8bf f228 9dbf
000001e0: aa8a 013e 01c0 d53d aa3f 9e3e 96e1 003e
000001f0: be31 17bd 5f31 2b3e 1024 3e3e a9c2 d43e
00000200: 8c66 433d a269 f8be 5b74 d03d ecb6 c1be
00000210: 4cc5 f7bd 4396 163e 2718 383e d410 853e
00000220: 7447 19be 1051 0bbf 7a77 efbd d94f 21bf
00000230: 9d60 423e a117 14be 3341 703e b1f7 edbc
00000240: 102a dcbe cd49 b2be ac7a 2abe 91b4 85be
00000250: 730b 393d 1ff4 c43a b84a d83d 0cb9 a53e
00000260: 3842 fbbe 23e4 38bf d4af a7be 9481 64bf
00000270: 1b3d 30bd e711 ffbd 266c b93d 0888 c13e
00000280: a066 9f3d c11f b8bd 9306 313d 8722 83be
00000290: 3f2a d23e 5158 d03e d3c7 673e c043 ad3e
000002a0: a5bb 9bbe 3890 3e3e c9de a9be 3c3f aabe
000002b0: 9bab 1cbd 0af0 80bd bc1d 1dbd 0115 d1be
000002c0: 5485 39bf 774c 21bf ae7e 3abf 812d 41bf
000002d0: 0f76 d73d 0153 42bd 1ce1 c0bc 424e 543e
000002e0: 804f 85be cd65 e1be f48e 93be 2687 843c
000002f0: 47cb b4bc 554c d73d bfc1 95bc c95e 833e
00000300: b728 67bf 7e0f 70bf 6531 87bf 60ae 10bf
00000310: 8ed6 4bbe fd0c ebbd 4c48 12be 7e2c a9be
00000320: acf2 e4bc 12df 86be cb57 60be 8113 bfbc
00000330: 5169 4dbe a3af efbd af55 a5bd 6f9f 8fbe
00000340: f752 f03e 1c48 bf3e 9b3a be3e 3209 f93e
00000350: 0a30 673e 9430 c0be b8a3 82be f47c c6be
00000360: aa3c d13d d98c 8c3d 7d0a 623e ea58 f9b9
00000370: 0b22 cb3e 8596 683e 2de8 283f 44bc 4f3f
00000380: 7da6 f2be 5e51 07bf eae7 abbe 96e0 edbe
00000390: 1dd7 4dbf 0406 84be c0ab 86be 0f37 d9bd
000003a0: 954a e23d 3492 17be d3a4 10bf 1879 aebd
000003b0: 6910 76be eb6b 863d 7ef9 2e3e c3ca 3c3e
000003c0: 1714 393e 61d9 cfbd 5935 223d 2b4e 19be
000003d0: b2e7 e6bd 06f2 3c3d 188f 0bbd 88ba 873c
000003e0: 8619 08bf 7617 0abd 3221 98bd 19f7 203e
000003f0: ddc1 6d3e 4dba 643d eb1b 043f d1b3 963e
-0.35379198 -0.4828406 -0.7266176 -0.607738 -0.7926431 -0.51546276 -0.6627651 -0.7367096
-0.1330861 -0.2976939 -0.38494813 0.079561226 0.22169933 0.22361358 0.27674192 0.16692011
-0.5582381 -0.4641112 -0.7710504 -0.7480449 -0.19934113 0.019881416 -0.14602135 -0.20628105
0.2992594 0.049137726 0.044026285 0.38814485 -0.27129644 -0.1091102 0.01952804 -0.3117972
-0.090265274 0.1927699 0.06498539 -0.079461165 -0.43100446 -0.23720595 -0.3298941 -0.07052675
0.02517641 -0.031945106 -0.11406416 0.0048004836 -0.140812 0.26759344 0.13654867 0.22130537
0.29305118 0.21167774 0.21807836 0.2581165 -0.064942785 -0.22904079 0.052901085 -0.35007992
0.08653334 -0.24110185 0.16486007 0.037607342 -0.11845017 0.03708482 -0.19475086 0.07435857
0.08965657 -0.023226965 -0.09750957 -0.037418105 0.088768244 -0.037260305 0.2566417 -0.01472968
-0.25944248 -0.25684336 -0.23375976 -0.35423762 -0.025933981 -0.38663846 -0.17252567 -0.3435808
-0.38161775 -0.40745857 -0.5651979 -0.68594414 0.07728201 0.2214816 0.24595632 0.26333317
-0.568391 -0.18649489 -0.38886932 -0.46840551 -0.13995615 0.062100843 0.005708289 0.15385957
-0.66856474 -1.1720781 -1.1464993 -0.6642116 0.21831617 0.22743776 0.19662379 0.0424574
-0.6210517 -0.4840473 -0.5839957 -0.7484979 -0.0030804216 -0.17631525 -0.4302844 -0.12431596
-0.37197796 -0.15765424 -0.26238868 -0.0705409 -1.1949931 -0.76381 -1.3129812 -1.227812
0.12650552 0.104370125 0.30907947 0.12586054 -0.036912672 0.16718052 0.18568444 0.41554764
0.04770522 -0.4851809 0.10178443 -0.3783487 -0.12098178 0.14705758 0.17977963 0.259894
-0.14968663 -0.54420567 -0.1169271 -0.6301246 0.18982168 -0.14462139 0.23462372 -0.029048773
-0.4300084 -0.3482193 -0.16648358 -0.26114324 0.045176934 0.0015026367 0.105611265 0.32367742
-0.49073958 -0.7222311 -0.32751334 -0.8926022 -0.043027025 -0.124545865 0.09053831 0.37799096
0.07783246 -0.089904316 0.04321916 -0.2561228 0.41047856 0.4069238 0.2263482 0.33840752
-0.304166 0.18609703 -0.33177784 -0.3325137 -0.038249593 -0.06295784 -0.038358435 -0.40836337
-0.7246907 -0.630073 -0.7284955 -0.7546006 0.10520565 -0.04744244 -0.02354484 0.20732978
-0.26037216 -0.4402298 -0.28820002 0.016177725 -0.022069586 0.10512606 -0.018280862 0.25658253
-0.902965 -0.9377364 -1.0561949 -0.56516075 -0.19906065 -0.11477087 -0.14285392 -0.33041757
-0.027947746 -0.26342064 -0.2190849 -0.02332473 -0.20059706 -0.11703422 -0.080729835 -0.28051326
0.46938297 0.37359703 0.37154087 0.48639828 0.22576919 -0.37537062 -0.25515532 -0.38767207
0.10216649 0.06862802 0.22074313 -0.00047559227 0.3967441 0.22713669 0.6597927 0.81146646
-0.47392645 -0.5285853 -0.33575374 -0.46460408 -0.8040636 -0.2578584 -0.2630291 -0.10606205
0.11049382 -0.14801866 -0.565015 -0.085191905 -0.24029697 0.065635525 0.17087361 0.18436722
0.1807407 -0.101488836 0.039601658 -0.14971225 -0.11274661 0.04612925 -0.03407201 0.016568437
-0.53163946 -0.03371378 -0.074282065 0.1571926 0.23218484 0.055841733 0.516051 0.29434064

classifier.0.bias f4 [250]
00000000: 98df 41bd ab44 10be cd02 2cbe 916a 94bd
00000010: 5da1 9d3c 9867 273e 45c2 263e e9f6 f93d
00000020: ced6 5fbe fbba 1f3e adca 0bbe 3626 dabd
00000030: 1500 9abc fcad 80bb 3155 12be f650 f6bc
00000040: 479d 38be 5ad3 f3bb 9eed c03d 703f 0cbd
00000050: efbd b1be bc07 eabb 9223 19bd 2722 f73d
00000060: d0df 29be 8efb 3cbe 8698 113d 827f 6c3e
00000070: 5d59 2cbe 4d89 7b3c c48e 20bd fcda 5cbd
00000080: 3012 c23c c318 2bbe 845b 683e e3e6 06bd
00000090: cf76 903d 9a36 7c3d 3845 2abe 8d2c 653d
000000a0: d7f0 5a3e 43ac 17be 76ce 35be 018e 4abd
000000b0: 6f79 48bc d961 ba3d ba7c cfbd 5661 05be
000000c0: bbb6 983b 3941 98bd 5b7a d33c fd14 68bb
000000d0: b706 183c 67be 1ebe 3fe9 cabc f5a5 533e
000000e0: d22c 423e 4b8f 973e 8353 933d a80a 20be
000000f0: fe94 2e3e 71c3 d53d 1176 83bd b627 5abe
00000100: b5d1 d23d 5d4d 00be c1ab 3f3e 1911 083d
00000110: 27f7 86bc 22a9 9a3d 11f4 18be 2253 913d
00000120: abe9 233e 5d2e 4fbc 745e 7c3e 0856 4cbe
00000130: a9f4 1bbe 0eb0 5cbd df0c 9b3c 376d 153d
00000140: 6e9f 853d a218 07be 5266 f9bc e279 9f3b
00000150: 2b57 54bd bca4 913c cd64 54be d164 c3bd
00000160: 6d6b 09bd 12d5 8abe 52d3 fd3d deae ca3d
00000170: 119e c73d 4dad 1ebe 3f63 863b 21b1 a3bc
00000180: 0a93 89bd decf 0d3e 8c3c 4f3d 5a05 32bd
00000190: 7895 0abe 3e6d 29bd a548 a6be f706 f63a
000001a0: 1889 073e fd77 4cbe 037f 653d 02fe 173d
000001b0: 8760 88bc 8ec6 f0bd 5cec b8bd 4f6d 04bd
000001c0: e842 e7bd ca3a 05be 3a44 153d b03c 0dbe
000001d0: 78aa 12bd 56a3 ee3c 368b 283e 37ae 11bd
000001e0: 4c0f 7ebd bfa8 d0be 68c2 813e 040d fcbd
000001f0: 1f74 84be beac 3cbc b9b6 e93d 0bab 99be
00000200: 18c9 213e ff31 8abd 0463 f8bc 2d13 573d
00000210: 26ea 44ba d169 94be 6efa d2bd f61f 0dbe
00000220: 7fe3 793d 006a 653d 54ba a0bd 326c c53e
00000230: 3fd2 acbd 58f4 d73c ca14 0cbe a045 403d
00000240: 1234 493d ea15 8ebe a84e 953d 7308 79bd
00000250: a82c 8c3d 3daf 1dbe 514f cabd 6996 38bd
00000260: 5f28 79bc ba02 d2bd 1121 5ebe 73d7 533d
00000270: 1be0 4d3d c137 06be a9bd 803c 8a01 b5bd
00000280: b43d 3cbe a584 b5bc 37e5 83be 4233 d93c
00000290: 2e68 ccbd 2212 08bd ec81 e6bc fefd 463e
000002a0: d38b c4bc 355e 81be af61 27be 3660 0abe
000002b0: 6a21 64bd 6703 d8bc 5cf4 883d 7d1a eabc
000002c0: ea86 6ebd ba97 153e 5d18 303d 557e bf3d
000002d0: 7dd5 9dbd e47e ddbd c0e5 cc3c d60a f6bd
000002e0: 56ea 2dbe a2e4 0d3e d1f1 7b3d 0d7a 8dbe
000002f0: 387b 6abe d357 2c3d ca15 683d 0cd7 943d
00000300: 5cf7 0a3e 6315 913d cd18 833d 8587 ad3c
00000310: 24fe 003c 2204 03be 6a61 34bd 2035 9d3d
00000320: 3803 703e a3eb b0be 46bc 073e bc84 64be
00000330: 90ca 55bd 1f67 cbbd 9a89 16be dc16 afbd
00000340: 3ff1 123d 0403 a13d cbb7 4dbe f12b 453c
00000350: 20f3 e23d c372 953c fc2a e7bc 9293 1e3e
00000360: 1c39 02bd dfa0 86bd 72cd 063e 4e4a 383d
00000370: 86a5 8d3d 3f08 bbbd cc96 873d d437 79bd
00000380: 9d4b d4bd f2fd 853d b6a6 063e 5542 19bc
00000390: d161 3abe 2753 13be 84ad 68bd 7be5 d6ba
000003a0: 679a 12be 1cd3 24be 48dc 9fbd 7c29 dcbd
000003b0: 9485 debc f267 803e 73b5 b1be 1cbf a33e
000003c0: 806f a93d b618 2cbd dc4c 05be f4de adbd
000003d0: f38f 983d a1ca 063c 7780 ba3d 5cc3 10be
000003e0: 96a5 abbc 8f4e 2f3d
-0.047332376 -0.14088695 -0.16797943 -0.072468884 0.019241983 0.16348112 0.16285045 0.122052975
-0.21859285 0.15598671 -0.13651533 -0.106518194 -0.018798867 -0.0039269906 -0.1429031 -0.030067902
-0.18028747 -0.0074409666 0.09420322 -0.034240186 -0.3471522 -0.0071420353 -0.037387438 0.12067061
-0.16589284 -0.18455335 0.03554585 0.23095515 -0.16830964 0.015352559 -0.039198652 -0.053919777
0.023690313 -0.16708665 0.2269116 -0.032935034 0.07053911 0.06157551 -0.16627967 0.05595069
0.21380936 -0.14811806 -0.1775454 -0.04945183 -0.012235983 0.09100694 -0.101312116 -0.13025412
0.004660455 -0.07434315 0.02581518 -0.00354129 0.009278945 -0.1550232 -0.024769424 0.20668776
0.1896241 0.2960151 0.07193663 -0.15629065 0.17049024 0.10437668 -0.06419004 -0.21304211
0.10293905 -0.12529512 0.18717863 0.03321943 -0.016475273 0.07551791 -0.14936854 0.070959345
0.16007106 -0.012645331 0.24645406 -0.19954693 -0.15230049 -0.053878836 0.018927036 0.03648111
0.065245494 -0.1319299 -0.030444298 0.0048668245 -0.051840942 0.017778747 -0.20741577 -0.095407136
-0.033549715 -0.27115685 0.12393822 0.098966345 0.09746946 -0.15495797 0.0041011865 -0.019981923
-0.067174986 0.13848826 0.05059485 -0.043462135 -0.1353358 -0.041363947 -0.32477298 0.0018770386
0.13235891 -0.19967647 0.05602933 0.037107475 -0.01664759 -0.11756621 -0.09029457 -0.032330807
-0.11292058 -0.13010707 0.03644202 -0.13792682 -0.035807103 0.029130619 0.16459355 -0.035566535
-0.062026307 -0.40753743 0.25343633 -0.1230717 -0.25869843 -0.011515794 0.11411805 -0.30013308
0.15799367 -0.06747817 -0.030320652 0.05250852 -0.00075116975 -0.28986982 -0.10301672 -0.13781723
0.061007973 0.056009293 -0.07848039 0.3855911 -0.08438539 0.02636163 -0.13679805 0.0469414
0.049121924 -0.27751094 0.07290393 -0.060799073 0.06844455 -0.1539888 -0.0987841 -0.045065317
-0.015207379 -0.10254426 -0.21692301 0.05171914 0.05026255 -0.13107206 0.015715437 -0.08838184
-0.18382913 -0.022157976 -0.25760815 0.0265137 -0.09980808 -0.033220418 -0.028138123 0.19432828
-0.023992455 -0.25267187 -0.16345857 -0.13513264 -0.05569593 -0.02636881 0.06687233 -0.028577084
-0.058234133 0.1460866 0.042991985 0.09350268 -0.07706735 -0.10815218 0.025011897 -0.120137855
-0.16983923 0.13856748 0.06150991 -0.2763218 -0.22898567 0.042075943 0.056661405 0.072675794
0.13570923 0.07084157 0.06401215 0.021182785 0.007873092 -0.12794545 -0.044038214 0.076761484
0.23438728 -0.34554777 0.13255414 -0.22316259 -0.05219513 -0.09931778 -0.14700928 -0.08549282
0.0358746 0.07861903 -0.20089643 0.012034402 0.11081529 0.0182432 -0.028218739 0.15485981
-0.031792745 -0.065736525 0.13164309 0.044992737 0.06916337 -0.09132432 0.06620559 -0.060844257
-0.103659846 0.06542577 0.13149533 -0.009354194 -0.18201376 -0.14387189 -0.056806102 -0.0016395295
-0.14316712 -0.16096157 -0.07805687 -0.107501 -0.027163304 0.25079304 -0.34708747 0.31981742
0.0827322 -0.042015754 -0.13017601 -0.084897906 0.07449331 0.008227021 0.09106534 -0.14137024
-0.020952981 0.04279953
