model-dz/saved_model/MFCCNN_250_state_dict.pt (torch, 279008 bytes, 20 tensors)

backbone.0.conv.weight f4 [8, 1, 3, 3]
00000000: 6572 4a3e 75ff 543f 6675 343f e351 d9bc
00000010: b234 51bd f9b8 d9bd 5d6b a73e a9b7 d33e
00000020: 8b80 2e3e cf46 04be 164e bdbe 89c5 73be
00000030: b600 ef3d 8ede b63e e5ae 653e 401d e6bd
00000040: 9813 acbe 5d5b 82be 4f89 a63e 55c5 b83e
00000050: 9052 ac3d c51f ad3e cc58 f03e 861c 9b3e
00000060: 9eb6 76be 815f a03d 89c0 cf3e 4f46 66be
00000070: e48e d0be 367e 5fbe 4c38 dbbc 64b9 8ebd
00000080: aca2 bfbd 39a7 8f3e b080 113f 7f68 f93e
00000090: efce a2bd e344 bdbc 5478 1a3d 026a 1d3f
000000a0: df0f 673f 5499 253f 9454 883e 0508 503e
000000b0: e1f7 66be 5d14 9a3e 667b 133f 52a2 61bd
000000c0: 9954 743d d215 673d 0f9c bc3d a875 e53e
000000d0: 5334 1e3f 779a 913e 2c24 743e ce0b 9a3e
000000e0: 99bb ed3c fda9 cfbe ba9c 13bf bdee 35be
000000f0: b861 163e d280 723e f3c8 1b3e 3767 56be
00000100: 66a5 bebe 551b 9abe 1c5a abbd d49a d6be
00000110: da27 a3be 8867 15be 99f7 dabe eb15 aabe
0.197702 0.83202296 0.70491636 -0.026528304 -0.051075645 -0.10630984 0.326991 0.4135106
0.17041223 -0.12917636 -0.36973637 -0.23805822 0.116700575 0.3571667 0.22429998 -0.11236048
-0.336087 -0.2546033 0.32526633 0.36088052 0.08414185 0.338133 0.46942747 0.302952
-0.240931 0.07830716 0.4057658 -0.22487758 -0.40734017 -0.2182549 -0.026760243 -0.06968954
-0.09357199 0.28057268 0.56836987 0.48712537 -0.07949626 -0.023104137 0.03771241 0.6148988
0.9025859 0.64687085 0.26627028 0.20315559 -0.22555496 0.3009366 0.57610166 -0.05508644
0.05965099 0.056417294 0.09209453 0.44816327 0.6179859 0.2843816 0.23841923 0.3008713
0.029020118 -0.40559378 -0.5766102 -0.17766853 0.14685714 0.23681954 0.15213375 -0.20937811
-0.37235564 -0.30098978 -0.083667964 -0.41915 -0.31866342 -0.14590275 -0.42767027 -0.33219847

backbone.0.conv.bias f4 [8]
00000000: 4e44 383e c64e f0bd 87d3 0b3e d238 6bbe
00000010: 773d 8f3d bb97 64bd 8dcc d0bc 4d95 0a3e
0.17994806 -0.11733775 0.1365491 -0.22970894 0.06994145 -0.055808764 -0.025488162 0.13533516

backbone.0.bn.weight f4 [8]
00000000: ec00 2b3f 2c4c be3f 169e 9e3f c102 0d3f
00000010: 681e d23f 05a0 1b3f ed86 913f aacf 6f3f
0.6679828 1.4866996 1.2391994 0.5508233 1.6415529 0.60791045 1.1369301 0.93676245

backbone.0.bn.bias f4 [8]
00000000: 4d21 603e 699e c5bd 29a6 f7bb af5a 003f
00000010: 3a88 343f eefb 9fbe 951d 943e e5df 693e
0.21887703 -0.09649355 -0.0075576496 0.5013837 0.70520365 -0.31246895 0.2892882 0.22839315

backbone.0.bn.running_mean f4 [8]
00000000: 9baf bc40 c3f7 1cc1 e73e 28c1 049e 1e40
00000010: 3df9 b9c1 2685 353f a04e 6141 a888 d340
5.896436 -9.810489 -10.515357 2.4783945 -23.246698 0.70906293 14.081696 6.6104317

backbone.0.bn.running_var f4 [8]
00000000: 204e 7344 bd36 1545 9f70 8945 2d5c 3744
00000010: 6fd4 8046 9f72 c943 06c2 a945 0bd7 0745
973.2207 2387.4211 4398.0776 733.44025 16490.217 402.89548 5432.253 2173.4402

backbone.2.conv.weight f4 [16, 8, 3, 3]
00000000: a509 48be a6a5 a6bd 1603 dabd 63af c63e
00000010: bb3e 9e3e 6ec9 713e bfc3 4e3e b179 343e
00000020: 0cc0 a13d a06d 403e d064 133e 6fcb 5b3e
00000030: 2313 41be 64d3 36bd 31b8 babd 2ade adbd
00000040: 0db8 86bd 539c dbbd 916c ddbe 90be 5bbe
00000050: 4047 4fbe e137 e33e bd85 803e fc79 943e
00000060: cbfe 393e 3e91 c3bc 4b9b 38bd e8e4 33bd
00000070: 0404 d2bc a8f3 d6bd 6ff4 e5be 1fb2 87be
00000080: d88d b6be 97bc 1f3d 4995 593e bbad f93d
00000090: 4e59 a9be b32a bcbe 0686 abbe 3b7f a03e
000000a0: 5f47 be3e 9c05 b53e 0b25 3cbd 9382 a2bd
000000b0: e4e3 6fbd d989 183d d911 933c 4933 013e
000000c0: fa44 99be 6d95 a6be 3a20 b6bd c24c 7fbe
000000d0: 3225 68be 4f1d 95be d509 16be a61e f7bd
000000e0: 5951 dbbd 0d81 e7be 5126 20bf 29a3 dfbe
000000f0: 84c0 65be 7c1f d23c 395a d93c 9c7b d73d
00000100: c93c 283d dd45 033e ceed 81bf 9b57 febe
00000110: afd5 16bf 71ee 7abe d409 6abd 74ff 54bd
00000120: c95c 85bd 04d0 83bd a1d5 78bd e1ef 3cbd
00000130: 148a bbbd b6d1 183e c451 463d 58a3 1bbe
00000140: 4645 8e3c 13e3 8abe 18fe 8ebe f3c3 78be
00000150: 0dba 28be 89ec 09be 1253 e8bd 0878 92be
00000160: 261d b5be 3839 79be e692 0c3e 4031 3e3e
00000170: 22d1 453e ef6b 613e 7cb7 8d3d cf49 a03e
00000180: 57b4 adbd 11c9 66be d54b b1bc f2f7 3bbc
00000190: ebb7 24be 8668 f9bd f9b6 c1bd 9977 0abe
000001a0: f06b 89be 7673 0abf 3042 01bf 95e3 04bf
000001b0: e075 603e 67b6 213e 5376 613e 788b 933e
000001c0: a16d c6bb e965 a43e 126c 92be 09e5 91be
000001d0: 8f8b e4be 1f05 363e 0d6c 383d 7e75 843e
000001e0: a434 5abd 9b73 e2be aabd 32bd 2fa9 b93e
000001f0: 122b f63d 8b62 553e 0449 a2be ea57 d2be
00000200: bbd8 a5be 369e ffbe ced9 09bf 42e5 12bf
00000210: 9228 a83c 6cbd c33c 9a27 07be 0f36 643e
00000220: 54f6 a03e b7f6 573e 49e3 6e3e 0e37 8b3e
00000230: 66da c8bd c5fd be3e 16bf 853e 1df6 da3e
00000240: 445e 0b3d a924 7b3b ed20 2c3d 3f5a a4be
00000250: 7266 8fbd 31f9 20be 7a30 09be c990 88bd
00000260: 6569 3f3c 360e 863d 2165 c53d 6700 573d
00000270: 3cdc d83e b396 7f3e 2e94 8e3d 79d8 52bd
00000280: f42c d3bd 0cb1 d4bd 3320 0bbf a007 0dbf
00000290: faeb 99be c2d8 04bf b2c8 aebe 7af0 283e
000002a0: 91dc a7be 61a1 87be 0bac dbbc cfea c8bd
000002b0: c0aa 26be cd75 17be 3183 9fbe 620c 9cbe
000002c0: 779d d6bc bb3a 82be e497 2fbd 3c2f 0e3e
000002d0: 9370 43bf 4339 19bf 7549 e3be 3338 0ebf
000002e0: db34 1abf 1c43 433d 00db 47be ea71 babe
000002f0: c5da 053c 1871 a73c 7e10 f03d 98ea 6ebd
00000300: acf5 133e 8e91 163e 2152 4f3e addd fe3e
00000310: 3f0c 9b3e 9a64 aa3e 73b6 f23d afe7 e13d
00000320: 6004 033e 2332 4dbe 13cb c5bd 0d42 193d
00000330: 915e 46be d5f1 92bd b522 cfbe 148b 9b3e
00000340: 081f 6e3e c608 603e 298b 9b3e 5fdf 323e
00000350: 92df 013e 720f 8f3e e3d7 963e 6c0d b9bd
00000360: fbf4 23bd cba1 70bd d86e 913d e8a8 2cbf
00000370: 959f d2bd f78c a5be e7f0 1b3e 6eef 1c3e
00000380: e70b 1c3d 205a ba3e 6395 b53d 54b5 d63e
00000390: 40f6 103f f6ea ea3e 1417 403f 8f17 96bc
000003a0: c70e 06be c9b0 48be 98cd 103c 022e efbc
000003b0: abed 0a3c 02c2 28be 2309 fcbd 6cfc 0bbd
000003c0: 8066 f03d 5d0a d8bd 736e 01bd c6ed 96be
000003d0: 378b 003c b3c8 9dbe e054 ab3e c6e0 5e3e
000003e0: 03c8 413e d2dd 94be bd77 15bd 95ad 12bc
000003f0: 32f9 13be 8904 683e b684 b33d 18ed e23e
-0.19534929 -0.08137064 -0.1064512 0.38805684 0.30907235 0.23611996 0.20191859 0.17624547
0.07897958 0.18791819 0.14393926 0.21464323 -0.18854956 -0.04463519 -0.09117163 -0.0848964
-0.06578074 -0.10723176 -0.43246892 -0.21459413 -0.20242023 0.4437857 0.25102034 0.28999317
0.18163602 -0.023872968 -0.045069974 -0.043919474 -0.02563668 -0.104956925 -0.4491305 -0.26503083
-0.35655093 0.038998213 0.21248354 0.121913396 -0.33075947 -0.36751327 -0.3350069 0.3134707
0.37163827 0.35355842 -0.045933764 -0.07935061 -0.058566943 0.037240837 0.017952846 0.1261722
-0.29935437 -0.32535878 -0.088928655 -0.24931625 -0.22670439 -0.29123923 -0.14652188 -0.120663926
-0.10708875 -0.45215645 -0.62558466 -0.4367917 -0.2243672 0.025649779 0.02653228 0.105216235
0.041073594 0.1281962 -1.0150697 -0.49676213 -0.58919805 -0.2450502 -0.05713828 -0.05200143
-0.06511838 -0.0643616 -0.060750607 -0.046127204 -0.09157196 0.14923748 0.04841782 -0.1519903
0.017367017 -0.2712637 -0.27928233 -0.24293499 -0.16477223 -0.13469137 -0.113439694 -0.28607202
-0.353738 -0.24338233 0.13727912 0.18573475 0.19318059 0.2201383 0.069197625 0.3130631
-0.08481663 -0.22537638 -0.021642605 -0.011472689 -0.16085784 -0.121781394 -0.094587274 -0.13522185
-0.26840162 -0.5408243 -0.5049162 -0.5190976 0.21919966 0.15792237 0.22017793 0.28817344
-0.0060555493 0.32109 -0.28598076 -0.28495052 -0.44637725 0.17775391 0.04502492 0.2587089
-0.05327286 -0.44228825 -0.04363791 0.3626189 0.12019934 0.20838372 -0.31696332 -0.41082698
-0.32391915 -0.49925393 -0.5384797 -0.5738107 0.020527158 0.023894034 -0.131987 0.22286247
0.31437933 0.21090208 0.2332889 0.2719044 -0.09807281 0.37302986 0.2612235 0.42765895
0.034025446 0.0038321412 0.042023588 -0.32100102 -0.07001962 -0.15720059 -0.13397399 -0.066682406
0.011682843 0.06545679 0.096384294 0.052490618 0.42355525 0.24959831 0.06961857 -0.051475976
-0.103113085 -0.103853315 -0.5434601 -0.5508976 -0.30062848 -0.51893246 -0.34137493 0.16497985
-0.32785466 -0.2649031 -0.026815435 -0.09810411 -0.16276073 -0.14791031 -0.3115478 -0.30478197
-0.026198132 -0.25435433 -0.042869464 0.13885206 -0.7634365 -0.59853 -0.4439198 -0.55554503
-0.602369 0.047671422 -0.19517136 -0.36415035 0.0081698345 0.02043967 0.11721896 -0.058329195
0.14449185 0.14703962 0.20246173 0.497785 0.3028278 0.33279878 0.11851206 0.11030518
0.12794638 -0.20038657 -0.09657874 0.037416507 -0.19372012 -0.07175032 -0.40456167 0.30379546
0.23254025 0.21878347 0.30379608 0.17468022 0.12682942 0.2794147 0.29461583 -0.09035763
-0.040028553 -0.058748048 0.0710122 -0.6744523 -0.10284344 -0.3233411 0.15228616 0.1532571
0.03809729 0.36396885 0.08866384 0.41935217 0.5662575 0.45882386 0.75035214 -0.01832178
-0.13091575 -0.19598688 0.00883808 -0.029196743 0.008479516 -0.16480258 -0.1230643 -0.034176275
0.117383 -0.10548852 -0.031599473 -0.29478282 0.007845691 -0.30817184 0.33463192 0.21765432
0.18923955 -0.29075485 -0.036491144 -0.008952518 -0.14450529 0.2265798 0.08765547 0.44321513

backbone.2.conv.bias f4 [16]
00000000: 8a35 2fbe cff3 863e 0c55 93be dbfe 043d
00000010: a62f 37be 4cdd 98be 963b b7be 3c7d ddbc
00000020: 8d52 90be 01e9 95be 709b 6d3e 23ba c63d
00000030: 0332 15bd f492 ad3d 499e 3fbc 1e36 9cbc
-0.17110267 0.26357886 -0.28775823 0.03246961 -0.1788927 -0.29856336 -0.35787648 -0.027037255
-0.2818798 -0.2927933 0.23203826 0.097034715 -0.036424648 0.08475295 -0.011695453 -0.019068774

backbone.2.bn.weight f4 [16]
00000000: b848 a13f 0d33 af3f f221 573f 91d0 a33f
00000010: be93 9f3f 3ff1 133f d2a9 493f 6b73 423f
00000020: 9002 903f 679d 8c3f 44d9 a43f ad8d 4d3f
00000030: 7a1b be3f 9d65 c63f 0f4f 673f 56d0 b23f
1.2600317 1.3687454 0.8403617 1.2798024 1.2466962 0.5778999 0.7877475 0.75957364
1.1250782 1.0985535 1.2878804 0.80294305 1.4852135 1.549976 0.9035501 1.3969829

backbone.2.bn.bias f4 [16]
00000000: f96c 173d 0787 473e 1176 b93d ed99 8b3d
00000010: 0a7c 2d3e b99a ab3d 8653 ab3e a4d2 1e3e
00000020: 803b cdbd b881 2fbe c6c8 21be 9d6c 47be
00000030: 1a11 a5be 9284 09be f535 60bd ab96 843d
0.03696916 0.19485103 0.090557225 0.068164684 0.16941848 0.083791204 0.3346216 0.1551004
-0.10021114 -0.17139328 -0.15799245 -0.19475026 -0.3223961 -0.13429478 -0.054738957 0.0647405

backbone.2.bn.running_mean f4 [16]
00000000: 3e13 d1bf a578 b2bf 5365 97c0 a3de ab3d
00000010: 09ad e9bd 37ea 9ebe 4a35 80c0 bafd 72bf
00000020: 5be4 c03f e0c3 ed3c 57e1 4b3f a608 6f40
00000030: 368e 94c0 1c68 6ebc 43a3 d0bf f1a2 36bd
-1.6333997 -1.3943068 -4.7311187 0.08392074 -0.11409957 -0.31038067 -4.006505 -0.94918406
1.5069689 0.029024065 0.79640716 3.7349029 -4.6423597 -0.014551189 -1.6299824 -0.044588987

backbone.2.bn.running_var f4 [16]
00000000: 62ca db3f d6af 9b3f e852 e23f 520b 1540
00000010: d864 bb3f 0d57 d93e e7a5 393f 110e 683f
00000020: acdd d03f 6129 af3f c09e 5c3f 80e5 2840
00000030: b64b 983f 14b5 6040 cd3a 2140 bb8d 1540
1.7171137 1.2163036 1.7681551 2.328816 1.464015 0.42449227 0.7251877 0.90646464
1.6317649 1.3684503 0.86179733 2.6390076 1.1898105 3.5110521 2.519214 2.3367755

backbone.4.conv.weight f4 [16, 16, 3, 3]
00000000: 2fa2 843d 0d4e 213e 3837 2e3c 3068 6f3d
00000010: 59e2 a5bd 0897 81be a4e7 0d3d e435 54be
00000020: 3730 e03d 042b 1c3c 6bb9 45bd 33e7 f43d
00000030: e78b f83d db4a a53e 9b58 2dbd 4a62 723c
00000040: c7b3 c3bc a5ac 44be e233 dfbd 26db f0bd
00000050: 8f14 0a3e 14c4 3bbd 2689 c23c 2fb0 273e
00000060: 3358 a9bc 9c60 e73d 2a93 1c3d f3fc 193e
00000070: ee8d 6d3d 8207 ecbd d35f 12bf 1e53 07bf
00000080: ff17 5b3e 7206 a9bd 2244 29bc 4c97 933c
00000090: 67f1 883e b363 913e 90ac cc3c ccd1 803e
000000a0: fc89 fb3e ddb5 00bc 8df3 0cbe 3e16 56be
000000b0: 8534 70be cd2e a7bd facd 1fbd 99eb f2bd
000000c0: ad6a 2a3e 67df 8b3e 43aa ff3d 50a6 33bd
000000d0: 30aa 4c3e 518e 313e cedf c6be 5b71 85bf
000000e0: e621 10bf e0d1 4abd d888 8abe 70c4 07bf
000000f0: b50d ca3e 4b59 b83e d986 db3d ae3b cbbb
00000100: c493 81be 4cdd 393d c933 733d 5eaa d73b
00000110: 3795 1f3e 0636 3d3e be42 b83e c59b d63d
00000120: 0adf 2b3e 0598 d73e febf f83d 2675 6e3d
00000130: c18d 9a3d f17b 303d d7bf 193e 8c75 163e
00000140: d2a3 2d3d 0d2a 3d3d 7ef2 083f 7b01 cd3e
00000150: 726b ddbd 17dd 463e ed95 1e3e f9c1 27bd
00000160: d0bd c0be 86e9 b8bd 4a66 093c a1d7 17bd
00000170: 4374 ecbd 921c fcbc 5f4d dabe a794 a3be
00000180: ec99 cbbd e205 813e f6a9 2e3e 1c5d d0be
00000190: 95eb fdbe d0bc c7be 703c 633d f625 e53c
000001a0: f111 ee3d 35be 403c 849f 4e3e e745 0e3e
000001b0: 2009 aabe e550 f3be dc21 7abd de68 0c3d
000001c0: ff86 6dbe 6506 15be ff7b 4ebe 88cb 3d3e
000001d0: 2409 8e3d 1a6d f93d defe 6d3e ca5c 293e
000001e0: b0cf a33e 9db4 183f aa9e be3d 3607 a2bd
000001f0: 008c 623e 3353 00be d4ba ccbe e1c4 1dbf
00000200: 485c 68be db1e 0bbe 13d6 9abe 57b9 38be
00000210: 483c ad3e ba8a ea3d a5f0 54be 323b b8bd
00000220: aa48 07be 42b9 8ebd 3a51 aabe 9f2b 433d
00000230: 4333 243e 28a5 2a3e db2d 2b3e e527 433e
00000240: 3c21 9dbd c5e1 e7be bb37 81be fb39 fd3d
00000250: beaf de3e 6dd8 1e3e 6e1b 553e 3a7d 5d3e
00000260: 3dba 783e ccbb 2dbe 278e 28bf 80d7 d9be
00000270: f8cf 87be 2f97 17be 66ee 763d e82e 353e
00000280: 049b c93e d45c 143e e42d ac3d 7e68 893d
00000290: 16e5 543e 4628 76be accc a0be fc09 15be
000002a0: 4e09 ab3b 1cf8 ab3b 6441 bb3b 252d 78bd
000002b0: 54fa 99bc b002 4f3c c8cd e33d 4b16 803e
000002c0: d062 703e 0f76 83bc 2882 fcbd 4dce eabc
000002d0: 45c8 6a3e ae1f d2be c7f2 9cbd 5c8e 9f3e
000002e0: 07c5 693f e86e db3e 23c1 e2bd bdac b63d
000002f0: 444b f23d be77 2f3e 84b3 41be 72d0 d2bd
00000300: 7225 bbbd fe0b 46be 6661 d1bd 2ab3 36be
00000310: 1c96 78be 9006 dabd 1e32 41be d2ab 05bf
00000320: aa7d 7cbe e155 d73d affa 363e 243c b63c
00000330: ebfd 7f3e 6bde 303e 6ae2 9e3d 5f8a ab3d
00000340: c8c9 643d e75e 80be 1f09 4abd ec9f 80be
00000350: 9cba debd 5a06 803e b70b a83e 9f9b 023e
00000360: 3ef5 8cbe 29cc 25bf 70de ebbd 428f 2e3e
00000370: f47a 6d3e 5875 313e 18fc c33c 04a5 61be
00000380: 36ef 26be f33a 30be 3edb 4bbe 2944 7bbe
00000390: 06e1 9a3d f916 423e 430f 053e 1179 053d
000003a0: f606 47bd 1a61 35be b4b9 acbe 6e7f 3dbe
000003b0: 4f93 f13c 410e 7c3e 587e bd3d c476 cbbd
000003c0: 3daf 0f3e c491 eb3e a554 dc3d 27c9 f33d
000003d0: b555 babe 8cc1 55bd 30a9 9bbc bf93 0bbe
000003e0: e673 43be 676c 80be c515 c7be 6879 a6be
000003f0: bc4d 92be b735 8fbe 304c c3bd 628d 0abe
0.064762466 0.1575243 0.010633282 0.05844897 -0.08099813 -0.2531054 0.034644738 -0.20723683
0.10946696 0.00953174 -0.04827253 0.1195816 0.12136059 0.32283673 -0.04232083 0.014793942
-0.023889435 -0.19206484 -0.10898568 -0.11760549 0.13484405 -0.04584129 0.023747038 0.16375802
-0.02067194 0.11297724 0.038226284 0.15037899 0.057996683 -0.115248695 -0.57177466 -0.528612
0.21395873 -0.082531825 -0.010331186 0.01801648 0.26746675 0.28396377 0.024984628 0.25160062
0.4912871 -0.00785586 -0.13764782 -0.20906922 -0.23457535 -0.081632234 -0.039014794 -0.11861343
0.16642256 0.2731888 0.12483647 -0.04385978 0.19986796 0.17339446 -0.38842624 -1.0425218
-0.56301725 -0.04951656 -0.27057528 -0.53034115 0.39463583 0.36005625 0.107190795 -0.0062021827
-0.2530805 0.04537706 0.059375558 0.0065815886 0.15584265 0.1847764 0.3598842 0.104789294
0.16784301 0.4210817 0.121459946 0.05821719 0.07546569 0.04308695 0.15014587 0.14693278
0.04239256 0.04618268 0.53495014 0.40040192 -0.10811509 0.19420277 0.1548688 -0.04095647
-0.37644815 -0.09028916 0.008386204 -0.037070874 -0.11545613 -0.030775342 -0.42637154 -0.3194935
-0.09941468 0.251998 0.17057022 -0.40696037 -0.49593797 -0.3901124 0.05547756 0.027972203
0.11624516 0.011764099 0.20178038 0.13893853 -0.33210087 -0.47522655 -0.061067447 0.034279697
-0.23196028 -0.1455322 -0.20164488 0.18534672 0.06935337 0.121790126 0.23241755 0.16539302
0.3199439 0.59650594 0.093076065 -0.079115316 0.22123718 -0.12531738 -0.3998629 -0.6162854
-0.22691453 -0.13585989 -0.3024145 -0.18039452 0.33835053 0.11452241 -0.20794924 -0.089956656
-0.13211313 -0.06968929 -0.33265096 0.047649022 0.1603518 0.16664565 0.16716711 0.19058187
-0.076723546 -0.45289436 -0.2523783 0.123645745 0.43493456 0.15512247 0.20811245 0.21629801
0.24289794 -0.1696617 -0.6584191 -0.42547226 -0.26525855 -0.14803766 0.06028595 0.17693675
0.3937608 0.14488536 0.084071904 0.067093834 0.20790514 -0.240388 -0.31406152 -0.1455459
0.005219615 0.005248083 0.0057145823 -0.06058993 -0.018796124 0.012634918 0.11123234 0.25017008
0.23475194 -0.016047506 -0.12329513 -0.028662825 0.2292796 -0.41039795 -0.076634936 0.311633
0.91316265 0.42858052 -0.11071994 0.08919666 0.11830762 0.17135522 -0.18916136 -0.10293664
-0.091380015 -0.19340512 -0.102236554 -0.17841783 -0.24276012 -0.10645783 -0.18866774 -0.522153
-0.24657312 0.10514427 0.17869066 0.022245474 0.24999206 0.17272346 0.07758029 0.083760016
0.055856496 -0.25072405 -0.049325105 -0.2512201 -0.10875437 0.25004846 0.32821438 0.12754677
-0.27530855 -0.6476465 -0.11517036 0.17046836 0.23191434 0.1732992 0.023923919 -0.22035605
-0.16302189 -0.17209987 -0.19907853 -0.2453772 0.07562451 0.18954076 0.12994103 0.03258616
-0.048590623 -0.17712823 -0.3373543 -0.18505642 0.029489188 0.24614812 0.09252614 -0.09934762
0.14031692 0.46009648 0.10758332 0.11903601 -0.36393514 -0.052186534 -0.019001573 -0.1363058
-0.1908718 -0.25082704 -0.38883796 -0.325145 -0.28574932 -0.2797067 -0.09536016 -0.13530496

backbone.4.conv.bias f4 [16]
00000000: 810d 60bb c30d 36be 62a8 c03d a45d afbc
00000010: 2e8f 813d e074 d63e 2f96 bb3d 5c09 183e
00000020: 7cc2 b23d 07c5 0d3e f45e 113e 2f94 e33d
00000030: f2c5 ac3d 4516 ab3d 9692 023e b455 2c3e
-0.0034187736 -0.17778687 0.094071165 -0.021406956 0.063261375 0.41886044 0.091595046 0.1484732
0.08728501 0.13844691 0.14196378 0.11112248 0.084361926 0.08353857 0.1275123 0.16829568

backbone.4.bn.weight f4 [16]
00000000: ee41 4e40 10d5 3f40 d43d 5940 c5ab 3840
00000010: 269b 3a40 7c35 4440 b389 5840 2c65 7840
00000020: 11ee 3940 aef7 5440 08ac 2e40 71b1 5940
00000030: eb48 4640 d22a 5640 fa58 3340 9070 3340
3.222774 2.9973793 3.3943987 2.885484 2.9157195 3.0657644 3.3834045 3.881175
2.9051554 3.3276172 2.72925 3.4014552 3.0982006 3.3463635 2.8023057 2.8037453

backbone.4.bn.bias f4 [16]
00000000: 1fc6 073f 022d 783f b02e 8e3f f1fd 583f
00000010: 579c 993f 3d03 2d3f 6db3 253f f4bf 493f
00000020: 5d7b b83f f8d7 b23f 3e7d 8c3f 13ef 683f
00000030: cb3d 5b3f f9c3 b33f 3049 ae3f 79e4 9d3f
0.53036684 0.96943676 1.1107998 0.84762484 1.2000836 0.67583066 0.64726907 0.7880852
1.4412647 1.3972158 1.0975721 0.909898 0.85641164 1.4044181 1.3616085 1.2335349

backbone.4.bn.running_mean f4 [16]
00000000: 1412 b63d fd5b f2bf ca04 6f3f b3a5 d2bf
00000010: 01b7 72bf 466f 3240 4bf4 38bf 7417 6b3f
00000020: ef51 30bf bcf8 b63e 1d87 4d3f 19b3 b0bf
00000030: 1aac ba3f c96c 6cc0 9486 5840 cd7f 94be
0.08890167 -1.8934323 0.9336668 -1.6456817 -0.9481049 2.7880416 -0.7224776 0.9183266
-0.6887502 0.35736644 0.8028429 -1.3804656 1.4583771 -3.6941397 3.383214 -0.29003754

backbone.4.bn.running_var f4 [16]
00000000: ea66 e73f 9dce a63f 4aa8 c03f 4712 883f
00000010: f7d4 c03f eeb9 0a40 5369 e63f d9ef eb3f
00000020: ecc2 f83f 61bb d23f 7915 b13f e98f df3f
00000030: aead cc3f 7ff6 a33f 3a0f 9c3f 2080 9a3f
1.8078282 1.3031803 1.5051358 1.0630578 1.5064992 2.1675982 1.8000892 1.8432571
1.9434485 1.6463434 1.3834678 1.7465793 1.5990503 1.28096 1.2192147 1.2070351

classifier.0.weight f4 [250, 256]
00000000: cbf3 1abf 69de 40bf c568 6abf f196 32bf
00000010: 419c d53e 3b29 dd3e 5d28 c03e 1d86 7f3e
00000020: 87dc e5bc a80b 893d bb94 7dbd 7100 89be
00000030: 1473 25be 2ca4 27be 5a0f 48be ff54 eebe
00000040: 1830 94bd 5971 99bd 53e3 29be d36e 2dbd
00000050: 4322 053d 4ad9 04bd 7267 3ebe 0481 9ebe
00000060: 9e06 cebd 29a3 31be c02f 68ba 5ac4 1dbe
00000070: 9b47 bbbc 415e 1e3e d413 7e3d 00d8 ec3d
00000080: cfc1 303c 5a7b 423e e9cb 50be 442c 663e
00000090: f99a 963d 0848 303e 7d8b 393e bd1a 113e
000000a0: f92a 2dbf 7a5b 1fbf b901 1ebf c8f6 dbbe
000000b0: 107d 5dbd d885 bc3e ee90 a23d 96cd 833e
000000c0: d979 fbbd b892 893d fa4c d13d 24f0 963e
000000d0: fa9f 77bd 7050 18be 6e49 12be a295 8abe
000000e0: 5d0f 803e 8014 4abe 87f1 e6bd 3c53 b8bd
000000f0: 0d8c 06be 9842 d23e 9fa0 e43e ccfb d5bd
00000100: 9ca9 3e3e 157c 13bd 8ec2 033d ee71 e13d
00000110: b835 aebe c8db cebe 15a8 c6be 455a 0abf
00000120: e745 0d3e 7d0f f73e cec1 d13e 521b 573e
00000130: 24c2 73be b140 63bc eb44 723d d15d d8bd
00000140: 6307 16bf a12f b2be 0212 bdbe 1548 0bbf
00000150: d42c 22bf 1d57 01be 0367 04bf 1113 47be
00000160: 73c6 7ebd d898 93be 4879 143d ba79 07be
00000170: bfea 96be fac2 d7be f9df d9be 4f46 debd
00000180: 3c29 c7be 210b 7cbe d6e0 e6be c1d5 2dbf
00000190: d3a2 b7bd a35b de3c 9551 be37 7cb9 84bc
000001a0: 9f60 6fbf 101b e4be 141f 83be 65ac d7be
000001b0: 0372 abbd 85e2 edbd c95a 2cbe b455 64be
000001c0: 3ad3 003e ba70 023e 7811 533d 05a3 c4bd
000001d0: 60a3 38bf b9bb 50bf 1bd0 26bf 2026 4abf
000001e0: 41fc 80be 831e a9be e177 2cbf 7f3f ffbd
000001f0: cf12 593e 3514 343d eeea 373d ae0a 593e
00000200: 2d84 00bf 9dd7 4dbf 8760 2bbf 096a 76bf
00000210: f9fb af3e c977 babd d20d 3b3e 080a 563e
00000220: 8e93 633d 1bf1 0bbe f895 85be 1a3d a8be
00000230: 8b00 a6bd 322c 4ebc 2ceb 9fbe d3d8 003d
00000240: a17c 54bf 9ecf 14bf a493 7fbf 0f1f 06bf
00000250: 5f74 833e 4e63 163e 16c4 5b3e d5ca 65ba
00000260: 5332 d3be f38d 90be d540 75be 3a69 27bf
00000270: 9ac0 24bd a787 403d 584f ce3d 8ce6 11be
00000280: 3f2a cf3d 9dcc 863e 0e33 82bc 3c8a a63d
00000290: 5aca 983e e312 123e dd69 2cbd 2c71 d7bc
000002a0: 991b 41be efce 46be 968a 62be bd9d 41be
000002b0: bca9 48bd 1595 3fbe 3803 94bd 0529 8ebe
000002c0: 4218 c3be f510 02bf 1ccd 99be 5a28 1cbe
000002d0: 21e7 06bc 0d3f d2bd 0a28 44bd f75f ccbe
000002e0: b9a7 f9bd f33c 0e3d f0ff bcbe 978b 98be
000002f0: b632 a9bd ea44 45be 0091 b5be 80c2 8fbe
00000300: f309 363e 3d74 113e 9625 d33e 44b1 983d
00000310: 1584 1bbf 1758 d1be 320c 5bbf bd23 30bf
00000320: 6933 90be df89 e2ba d166 d0be 3e43 01bf
00000330: 5551 ed3e 505c e03e 3abe 933e b7ef d63e
00000340: 20fb 19bf d57b 87bf ecd0 25bf a652 12bf
00000350: 00de 44bf 51f2 40be 74e9 f3be 4eed 55bc
00000360: 0b3f 853e e351 743e 9f37 5c3e 3bf5 913e
00000370: 1863 b33d 3c32 193e 5be5 5cbe 3419 743d
00000380: 4dee b8be 5227 71be 6b8b 9cbe c016 0cbe
00000390: 31af b23e 6d3d 3f3c f282 6d3e cc90 213e
000003a0: fcfb c6bd cc10 f03d 3ac2 523d 0ad5 7dbe
000003b0: 0b02 ebbe a47b 32be 3498 b0be 26cf 9cbe
000003c0: 5ced e33d 08eb 7b3e f04e 493e 79fe 423e
000003d0: 5e01 8f3e 031e 883d df04 833d 4254 86be
000003e0: 959a 5b3e d514 c53e 6369 46bc c669 c73d
000003f0: 7027 9cbe a5cd aebe c8d5 0abb 6088 b8be
-0.6052825 -0.7533937 -0.91566116 -0.6976157 0.41720775 0.4319552 0.37530795 0.24953504
-0.028059257 0.066916764 -0.06190942 -0.2675815 -0.1615718 -0.1637122 -0.19537106 -0.46549222
-0.07235736 -0.074923225 -0.16590624 -0.04234202 0.032503378 -0.032433785 -0.18594149 -0.30957806
-0.10059856 -0.17347397 -0.0008857213 -0.15406933 -0.022861293 0.15465643 0.06203063 0.11564636
0.010788395 0.18992367 -0.20390286 0.22477823 0.073537774 0.17214978 0.18119617 0.14170356
-0.67643696 -0.6224896 -0.6172138 -0.42961717 -0.054074347 0.36820865 0.079377994 0.25742787
-0.122791 0.067174375 0.1021976 0.29480088 -0.0604553 -0.14874434 -0.14285824 -0.27067286
0.2501172 -0.19734383 -0.112765364 -0.09000251 -0.13139363 0.41066432 0.44653794 -0.10448417
0.18619388 -0.036007006 0.032167964 0.110080585 -0.3402536 -0.40402055 -0.3880011 -0.5404399
0.13796197 0.48254004 0.40968174 0.21006516 -0.23804528 -0.013870404 0.059147757 -0.10564769
-0.5860502 -0.34801963 -0.369278 -0.54406863 -0.6334965 -0.12630887 -0.51719683 -0.19440867
-0.062200975 -0.28827548 0.036248475 -0.13230029 -0.29475972 -0.42140943 -0.4255369 -0.10853254
-0.38898647 -0.2461362 -0.4509341 -0.6790429 -0.08966603 0.027143305 2.2687755e-05 -0.016201727
-0.9350681 -0.44551897 -0.25609648 -0.42123714 -0.083713554 -0.11615471 -0.16831507 -0.22298318
0.12580577 0.12738314 0.05153033 -0.09601406 -0.7212429 -0.8153644 -0.65161294 -0.78964424
-0.25192454 -0.3303109 -0.6737042 -0.12463283 0.21198581 0.043964583 0.04490178 0.2119548
-0.50201684 -0.80407125 -0.66944164 -0.96255547 0.34371927 -0.091048785 0.18266991 0.20902264
0.05556064 -0.13666193 -0.2609098 -0.32859117 -0.08105572 -0.012583779 -0.3123411 0.03145678
-0.8300267 -0.581293 -0.99834657 -0.5239114 0.25674722 0.14686319 0.2146152 -0.0008765881
-0.41249332 -0.282333 -0.23950513 -0.6539494 -0.04022274 0.04700437 0.10073727 -0.14248103
0.1011548 0.26327983 -0.015893485 0.08131835 0.29841882 0.14265017 -0.042093147 -0.026299082
-0.18858184 -0.19414876 -0.22123179 -0.18907829 -0.048989996 -0.18709214 -0.072271764 -0.2776567
-0.38104445 -0.50807124 -0.300393 -0.15249768 -0.008233816 -0.10265932 -0.047889747 -0.39916965
-0.12190194 0.034726094 -0.36914015 -0.29794 -0.082616255 -0.1926457 -0.3546219 -0.2807808
0.17777233 0.14204498 0.41239613 0.07455686 -0.60748416 -0.4088752 -0.85565484 -0.6880453
-0.28164223 -0.001728352 -0.40703443 -0.5049323 0.46351114 0.4382043 0.2885607 0.41979763
-0.6014881 -1.0584666 -0.64771914 -0.5715736 -0.76901245 -0.18842436 -0.47639048 -0.013057066
0.2602466 0.23859362 0.21505593 0.28507408 0.08759135 0.14960569 -0.21571867 0.059594348
-0.3611931 -0.23550156 -0.30575117 -0.13680553 0.34899285 0.01167236 0.23194483 0.15777892
-0.09716031 0.11721954 0.05145476 -0.24788299 -0.45899996 -0.17429978 -0.34491122 -0.30626792
0.11129257 0.24601376 0.19659019 0.19042386 0.2793073 0.06646349 0.063974135 -0.2623616
0.21445687 0.38492456 -0.012110087 0.097369716 -0.30498838 -0.3414127 -0.0021184552 -0.36041546

classifier.0.bias f4 [250]
00000000: 4e02 febd 8013 e03c 5405 1abe 1a5a 59be
00000010: 3d49 f73d d154 713d e640 983e 8978 083d
00000020: 5962 4fbe ef3c 853d d863 82be c843 eabd
00000030: 9022 acbd d28b cdbd 358c 8ebe 4287 81bd
00000040: af51 f4bd cee4 ff3d 9d6e ae3d a5cb 7f3e
00000050: e8c5 08be c800 9cbd da01 7abd f6d1 c33d
00000060: 1cfa cebd 78f6 4fbe 9034 5abd 1f55 2f3e
00000070: 3b35 4cbe 95df c93d 9695 aebd 204a 2e3c
00000080: ed71 8b3d 444e 52be b330 03be 0fba a7bd
00000090: b79a fbbc 201a 443e b5c4 2dbe b1fe 123e
000000a0: b282 fb3d 1efa 3dbe 9113 a93d e3fb 6e3e
000000b0: d753 e9bd f965 14be c3b1 05be 3728 353d
000000c0: cbe5 6b3d 4df4 12bd 4e23 073e d53b e6bc
000000d0: ee50 2f3d 56f5 25be 50ca ae3d cc41 243d
000000e0: f83a edbc 2463 3c3e 2db0 303d 73a5 06be
000000f0: d69f 413e 95b6 1bbd 805a 1fbe 4ac0 42be
00000100: 3e51 c33d 21ff cebd fb05 5d3d 49f8 233d
00000110: 3411 b5bc 5560 e43d c6a7 f1bc 72bb 033e
00000120: 3cb8 97bd 1b19 2f3e e33a 663e 3e49 6cbd
00000130: de39 ffbd 8f00 b13d 5fa6 093e 7f83 2ebe
00000140: aabe 47bd dd3c 05bd a361 29bd 9092 a1bd
00000150: dd67 b63c 719a 04be c923 81bd 9365 69bc
00000160: 8449 8fbd 9df8 59be f816 c33d 6a07 ef3c
00000170: 9b74 243e da2e 4cbc 253a cbbd 0e3b 5f3d
00000180: 90c6 493b 6532 9dbc 988c 023e 1af9 73bd
00000190: 95e0 70be e66d b0bd 54a1 25be da98 1ebd
000001a0: de2e 0f3e d14c 4cbe c53e a63d 7da8 1d3c
000001b0: fe54 43bd 1d83 a7bd d915 c83d 8fa9 0c3e
000001c0: d390 34be c946 80bd 19e1 7c3c 8dcb 10be
000001d0: 873a 69be 8e31 25be f2e3 0f3e bbca edbd
000001e0: d6a2 a53d 4a0f 8ebe 9812 5d3e f74c 1dbd
000001f0: 0fcb 5fbe b23e 6a3e d02c 823e 36d4 92be
00000200: 9e6b 2f3e 4089 5ebe d8ea 1ebe 591a b73d
00000210: 0878 3a3c 8566 27bd 352e a43d 41dc afbc
00000220: 60fb 3a3d 17fc 9f3d b0f2 5b3e c956 733d
00000230: 8dc3 7bbd b227 3ebe 3a41 08be 2ac5 093e
00000240: 3894 d43d 57c3 78bd 3633 bf3c deab a43d
00000250: 0320 803c 8579 3bbe 5153 a03c 4d6e d83c
00000260: 6e09 083e d441 bbbd c271 03bd 940f 87bd
00000270: 228e d4bd d673 753d f28b 81bd 57d4 a8bd
00000280: 4223 81be b285 a1bd c161 87be edfb 1239
00000290: 1e9a a63c 1707 14be 8fe4 23be 74d8 9f3d
000002a0: 238d df3d 514e 2dbe dd5c f6bc 26ec 973c
000002b0: a47f c33d ed39 a9bc 9fe8 6f3e 36e4 d5bd
000002c0: d8c8 2fbe 805a 2f3e f9ac 153d 10bc 803d
000002d0: e646 d1bd 7caa 17be c69a fb3b 7ec4 26bd
000002e0: 5191 32be aee0 283e 6492 d23c a9aa 78be
000002f0: 6ccf 85be bc6c b13d faae 8a3d d3c2 2fbc
00000300: 10d4 da3c 6c8f c73d 1ab3 8cbd b7b8 acbd
00000310: 2bb3 09be d65e a9bd 6625 e5bd 2755 3c3e
00000320: 397c 843d 0bdf 35be 937c 8a3d 4b5e 43be
00000330: 0e4c b33d 4667 edbd b058 b7bd 1ad3 a2bc
00000340: 023a 11be 3426 4d3d ec29 59be c6c7 7abc
00000350: 2694 0fba 590d 803e 72e0 563e e572 693c
00000360: 13b4 a3bd b15c bfbc f051 303d fdb2 fe3d
00000370: 2493 10bd 389b fabb 3b2b 58bb c93f f3bd
00000380: 1fea 7fbd c812 4b3e ba3e 0a3e 6232 c7bc
00000390: 3e5f 98bc fd87 ccbd d0cf 933d 68f6 203e
000003a0: aebd 6ebd be43 07bd 3aa5 babc e502 913c
000003b0: ee4f 963d 2ee6 853c 044e 85be cfe2 cf3e
000003c0: 44c9 ab3d dade 963d 9359 0bbe 821c a9bd
000003d0: 166f 0f3e 6f50 223e 2905 db3c beeb 4dbe
000003e0: 2c07 86bc ecb4 553d
-0.12402783 0.027353048 -0.15041095 -0.21225777 0.12074516 0.058918778 0.29737014 0.033318076
-0.2025236 0.06505763 -0.254668 -0.114387095 -0.0840503 -0.10036434 -0.27841344 -0.063246265
-0.119296424 0.12494813 0.085171916 0.24980028 -0.13356745 -0.076173365 -0.061036922 0.09561531
-0.10106298 -0.20308864 -0.053272784 0.17122315 -0.19942181 0.09857098 -0.08524625 0.01063779
0.06808839 -0.20537668 -0.12811546 -0.08189785 -0.030713422 0.19150591 -0.16969569 0.1435497
0.122807875 -0.18552443 0.08255685 0.23338275 -0.11392944 -0.14492024 -0.13056092 0.044227805
0.057592195 -0.035877515 0.13197061 -0.028104702 0.04280179 -0.1620687 0.08534682 0.04010181
-0.028958783 0.18397194 0.043136764 -0.13149051 0.18908629 -0.03801592 -0.15561867 -0.19018665
0.0953698 -0.10107256 0.05396078 0.040031705 -0.02210293 0.111511864 -0.029498946 0.12864473
-0.07408187 0.1709942 0.22483401 -0.057687037 -0.12462209 0.08642685 0.13442372 -0.1704235
-0.048765816 -0.032528747 -0.04135288 -0.07889283 0.022266323 -0.1294954 -0.063056536 -0.014245409
-0.06996444 -0.21286245 0.09525865 0.02917834 0.16060106 -0.012462342 -0.099231996 0.05449968
0.0030788518 -0.019189069 0.12748945 -0.059563734 -0.23523171 -0.086147115 -0.16174823 -0.03871999
0.13982722 -0.19951178 0.08117441 0.00962269 -0.047688477 -0.08179305 0.09769792 0.13736556
-0.17633371 -0.06263501 0.015434527 -0.14140148 -0.22776233 -0.16132185 0.14051798 -0.116109334
0.08087699 -0.2774604 0.21589124 -0.038403478 -0.21854804 0.22875479 0.25424814 -0.2867753
0.17130896 -0.21732044 -0.15519273 0.08940572 0.011381157 -0.040869255 0.08016626 -0.02146733
0.045649886 0.07811754 0.21479297 0.059408937 -0.06146579 -0.1856983 -0.13306132 0.13454118
0.10379833 -0.060733166 0.023339849 0.080405936 0.015640264 -0.18308075 0.019570978 0.026419783
0.13284847 -0.09143415 -0.03209091 -0.06594768 -0.10378672 0.059924923 -0.063255206 -0.082436256
-0.25222212 -0.078868285 -0.26441768 0.00014017495 0.02033716 -0.1445583 -0.16005157 0.07804957
0.109155916 -0.16924407 -0.030073578 0.018545222 0.0954583 -0.020657504 0.23428582 -0.104439184
-0.1716646 0.17124367 0.036541913 0.0628587 -0.10218601 -0.14811128 0.0076783625 -0.040714733
-0.17438246 0.16491958 0.02570457 -0.24283852 -0.26134813 0.086633176 0.067716554 -0.010727602
0.026712447 0.097441524 -0.068700984 -0.08433669 -0.13447253 -0.08270042 -0.11188774 0.18391858
0.06469006 -0.17760865 0.06762042 -0.19078939 0.08754741 -0.115919635 -0.08952463 -0.019876052
-0.14182284 0.05008526 -0.21207398 -0.015306419 -0.0005477093 0.25010183 0.20984057 0.014248584
-0.07993331 -0.023359628 0.04304689 0.12436483 -0.035296574 -0.007647898 -0.0032984752 -0.118774004
-0.062479135 0.19831383 0.13500491 -0.024316017 -0.018600103 -0.09986875 0.072173715 0.15718997
-0.05828636 -0.03302359 -0.022783864 0.017701576 0.07339464 0.01634511 -0.26036084 0.4060273
0.08387998 0.07366724 -0.13608389 -0.082573906 0.1400722 0.15850995 0.026735859 -0.2010946
-0.016360842 0.052174494
