model-dz/saved_model/MFCCNN_2_state_dict.pt (torch, 24096 bytes, 20 tensors)

backbone.0.conv.weight f4 [8, 1, 3, 3]
00000000: ab66 8cbe 9642 e33c 309c 833e 5892 333e
00000010: b458 963e e9df 05be 957e 36be 56e7 6abe
00000020: 305f 8bbe 5cb7 2f3d 280c 133e 3df0 48be
00000030: f345 953e d4ef 8bbe 3fe6 44be 8687 5a3e
00000040: 385b d9bd 9ba8 8ebe 8943 32be ff1f f7bd
00000050: b9fd b4bd 4baa 89bd b6a5 0d3e 0305 0d3e
00000060: fe44 3cbe c9fa 70be d7ec 013d d141 0cbc
00000070: c24f 983d 30df 513e 99ad b13d 36c3 813e
00000080: ec01 16be 4973 df3d 359e 853e 7482 833e
00000090: 504a 64be d9ec a23d 2019 9abe acb2 78be
000000a0: 2f4d 683e 3077 39be 5ed9 12bd 9f80 9e3e
000000b0: 3b6f 4dbe dc87 8b3e 8963 33be b146 53be
000000c0: eafc ae3e 06e9 aa3e e186 a83e 492c 603e
000000d0: 8127 88bd 9566 b13d 8105 5ebe 0cb9 f63c
000000e0: 9627 89be 9137 e4bc 92b6 88be 83cf 243d
000000f0: 5fdf 0a3e 9acc d43d 51b6 6c3e af11 883e
00000100: a52f c63d 458b 7b3e 02ee 973e 0193 5bbe
00000110: 3866 2d3e 353e f2bd b131 9b3e d451 1bbd
-0.2742208 0.027741712 0.257051 0.17536294 0.2936455 -0.13073696 -0.17821725 -0.2293981
-0.2722106 0.042899475 0.14360106 -0.19622894 0.2915493 -0.27331412 -0.19228457 0.2134076
-0.10613102 -0.2786301 -0.17408575 -0.1206665 -0.08837456 -0.06721934 0.13832745 0.13771443
-0.18385693 -0.23533167 0.03172001 -0.008560614 0.074370876 0.20495296 0.08675689 0.25344247
-0.1464917 0.10910661 0.26097265 0.25685465 -0.22293973 0.07955331 -0.30097294 -0.24286908
0.22685693 -0.18111873 -0.03585183 0.30957505 -0.20061962 0.2725209 -0.17518438 -0.20632435
0.34177333 0.33380908 0.32915404 0.21891893 -0.0664816 0.08662144 -0.21681787 0.030117534
-0.26788014 -0.027858527 -0.2670179 0.04023696 0.13561772 0.10390587 0.23116423 0.26575992
0.09677056 0.24564846 0.29673773 -0.21442796 0.16933525 -0.11828271 0.3031135 -0.037919834

backbone.0.conv.bias f4 [8]
00000000: acaf 46be df2e 3a3e 26b5 943e 7a20 5c3e
00000010: 10c5 48bd 56b7 89be ec99 51be a980 5ebd
-0.19402951 0.18181942 0.29044455 0.21496764 -0.04901606 -0.26897687 -0.20468873 -0.05432192

backbone.0.bn.weight f4 [8]
00000000: e6dd 893f b6f1 733f 674e 873f 82e8 723f
00000010: b237 7c3f 9f94 8c3f 1fd1 813f 7eea 7e3f
1.0770843 0.95290697 1.0570801 0.9488603 0.98522484 1.0982856 1.0141944 0.99576557

backbone.0.bn.bias f4 [8]
00000000: f1cc f83c 4e25 b03c c6b7 143d dff0 17bc
00000010: e8c0 2b3c 82ca 743d 998a 9f3d 06e3 a63c
0.030371161 0.021502163 0.036308073 -0.009273737 0.010483004 0.05976344 0.07790107 0.020371925

backbone.0.bn.running_mean f4 [8]
00000000: ab5f 9ec0 4bec 0540 0e2a 4bc0 f63e 5ebf
00000010: 9fa9 db3f 9935 3dc1 a6a3 3340 f176 f7bf
-4.949178 2.0925472 -3.1744418 -0.8681482 1.7161139 -11.825585 2.8068633 -1.9333173

backbone.0.bn.running_var f4 [8]
00000000: 5bff 3444 1843 0d43 dad1 9543 15b9 c942
00000010: 16fb 4143 a694 5a45 65a0 cf43 0700 8243
723.9899 141.26208 299.63947 100.86149 193.9808 3497.2905 415.25308 260.0002

backbone.2.conv.weight f4 [16, 8, 3, 3]
00000000: 7bb0 c2bd aecd 60bc 9352 483d da04 40be
00000010: d670 1fbc 632c 8ebd 8c6e 843d e213 28be
00000020: 670a 8cbb 6afb 83bd 01c6 ab3c 7706 cbbb
00000030: ce97 fdbc f7a6 173d 3aaa 3d3e 9b7a 853d
00000040: ccf1 b8bb 9185 5bbd 251f 163d f7c3 01be
00000050: 6395 1b3d 932d 0bbe 51ab 9ebc e8c9 863c
00000060: 74f1 633d 3cfb 5b3d 57f2 853d 36dc cabd
00000070: 8cc7 6fbd d038 803c f630 e83d 4e83 d93d
00000080: 6b04 bd3d 61e7 c6bc 72cb 603c 99eb 22bd
00000090: 6dbd 483d 17f7 413d 2a02 2b3d baa8 f8bc
000000a0: f75a 4ebd e1d9 943c 289c 163d 6ccb 6ebd
000000b0: 0d1b 543b f876 f6bd 1841 51be 008f 81bd
000000c0: 6a54 cbbd 975f 7dbd cc31 3fbe be88 f93c
000000d0: da19 4abc 0f49 e9bd dc0c 353d eaf1 fc3c
000000e0: 6544 febc 4454 a53c 331e e43d b873 203d
000000f0: e318 26bc 9197 c13d dc21 043d 92ea 233c
00000100: 8881 00be 88a8 aebd e84f bc3d cc81 75bb
00000110: 948d 563d b551 a8bd 84ee a2ba d593 893d
00000120: a8f2 90bd 3c0b dc3d d501 c8bd 0c77 173e
00000130: 0351 9a3d 1932 df3d ff16 52bd 4a7e 55bd
00000140: 2cda 1bbe a489 5e3b 449d 8cbd 02b3 56bc
00000150: f2c9 d7bd a992 05bc faad 07bb 8fed 4c3c
00000160: a3b5 2cbd 188d a23d e689 093d f994 553d
00000170: 5819 69bc e6ca af3d 2a72 583d 4ea2 d73d
00000180: 218e 08bc 1dca 80bd 26db 9b3a 792c ba3d
00000190: cbab 60bd 9bb9 81bc ef6d ec3c 27b1 eabd
000001a0: 4eb8 f43c 8a94 b5bd 402e 533d c6d4 84bd
000001b0: e019 b53c 1885 9ebd e672 e93d 969d c2bd
000001c0: c538 113d 5b43 d33d 52ac 6b3d 7dcd 3b3c
000001d0: a759 79bc 9dd2 043e bf0f 193e 2639 043d
000001e0: 0a5b 733c b92b 8dbd c475 cb3d bd5e dfbd
000001f0: 0a26 a0bd 04e7 cb3c b55c f33d 484a adbd
00000200: 584d 303d 63f5 9dbc 791c a6bd 7972 c5bd
00000210: d6b0 f73d 7426 a33c e313 8bbd e91d 00bd
00000220: c726 c53d c086 a73c 5cfd 09be 6553 babd
00000230: b30b 73bd 829b 19bc a750 a2bd 823d e9bd
00000240: 83bb 9d37 bc78 47bd 4d21 b83c 424b 13bc
00000250: 7cfe 84bc 531c 23be 6dd9 28be df67 7bbd
00000260: 101d aabd bac2 b1bd dcea 073d c2f4 3ebc
00000270: 921e 37bc aa97 d43d 2c0b a53d 7eaf f9bc
00000280: df0b 36bd e8a3 19be 8c37 293d f373 38bd
00000290: 9aa9 33bd ad38 773d 3534 6b3d c563 6d3b
000002a0: 24c2 6a3c 97e0 d4bd d636 56bd 5374 e2bd
000002b0: 36b9 ccbd 83aa af3d 3384 fa3d 46fa c4bc
000002c0: 8d68 2a3d 777a 67bd 3813 bbbc 24bd dc3d
000002d0: 0f93 fb3c 8a5d 85bd 6cd3 5f3d 0731 64bc
000002e0: 1953 85bd 77c0 b03d f008 e63d 3319 96bd
000002f0: 0438 86bd 811a 08be 067e 14bd 822b 17be
00000300: fa9e 033d c32a 36bd 29ff 8bbd 9f10 ddbd
00000310: 3241 86bd 6402 143d 8561 aa3d e301 703d
00000320: 2ffb 98bd f6d3 ff3c c8cd 2bbd 81a3 85bc
00000330: aebf 0d3d 408b 1c3e dbf0 d03d 55ed 9cbd
00000340: 24ff a73d 281b c9bd e498 ccbd cc79 b3bd
00000350: 247f 7bbd df3f 8fbd a068 b7bd 4e76 d8bd
00000360: d9d1 02bd 6965 2cbd c4dc 20bd 5d50 e2bd
00000370: 2203 453d f66b dd3d c3ae fe3d 2781 8e3d
00000380: b0cd e53d 2c3b 31bd 3e4d 6cbd a05a 013d
00000390: eb8a 34bd 17a2 c43d 0ec5 873d 872a 4d3d
000003a0: 861e a2bd b0c4 ae3c 1c91 e9bd 6a8b 89bd
000003b0: 258b e63c 8906 8fbd 967a eb3c 4a5d eb3d
000003c0: 4874 143c 4683 d0bc 99f2 d83d 9245 653d
000003d0: 29b7 0f3c 0f40 c73d c55e 99bd e003 81bc
000003e0: 8be3 8abd 00d4 de3d 2de3 973d cbac 55bd
000003f0: b1c8 bebd 4de0 5cbd 67e4 fcbc 9992 12bd
-0.09506317 -0.013720913 0.048906874 -0.1875185 -0.009731492 -0.0694206 0.06466398 -0.16413835
-0.004273701 -0.06444438 0.020968439 -0.006195839 -0.030956175 0.037024464 0.18521968 0.06517526
-0.005644059 -0.053594176 0.036650795 -0.12672411 0.037984263 -0.13591604 -0.0193688 0.016453698
0.05565019 0.053706393 0.06540363 -0.09905283 -0.058539912 0.01565209 0.113374636 0.106207475
0.09229358 -0.024280252 0.01372038 -0.039775465 0.049008776 0.047354784 0.04175011 -0.030353893
-0.05037972 0.018170299 0.036770016 -0.058299467 0.0032364756 -0.1203441 -0.20434988 -0.06326103
-0.0992821 -0.06185874 -0.1867134 0.030460712 -0.012335265 -0.11390888 0.044201717 0.030877072
-0.031038472 0.020181783 0.111385725 0.039172858 -0.010137769 0.09452737 0.032258853 0.010004656
-0.12549412 -0.085282385 0.091949284 -0.0037461398 0.052381113 -0.082187094 -0.0012430702 0.0671765
-0.07077533 0.1074433 -0.097659744 0.14791507 0.07534983 0.10898227 -0.051291462 -0.05212239
-0.15219945 0.0033956552 -0.068659335 -0.013104202 -0.10536565 -0.008152642 -0.0020703063 0.01250781
-0.04216541 0.07937068 0.033578776 0.052144025 -0.014227234 0.08583622 0.05284325 0.10529004
-0.008334667 -0.0628855 0.0011890873 0.09090514 -0.054851335 -0.015835574 0.028861014 -0.114595704
0.02987304 -0.08866222 0.05155778 -0.06485896 0.022107065 -0.07740229 0.11398868 -0.095027134
0.03545453 0.103155814 0.057537384 0.011462566 -0.015219129 0.12970968 0.14947413 0.032281063
0.014853248 -0.06893105 0.099345714 -0.10906742 -0.078197554 0.02489043 0.11882917 -0.08461434
0.04304251 -0.019282049 -0.081108995 -0.096409746 0.12094276 0.019915797 -0.067909025 -0.031278525
0.09626537 0.020449996 -0.13475555 -0.090979375 -0.05933733 -0.009375455 -0.079255395 -0.11388685
1.8803175e-05 -0.048699126 0.022476817 -0.008990111 -0.016234629 -0.15928774 -0.16489191 -0.061378356
-0.083063245 -0.08679719 0.033182964 -0.0116550345 -0.011176722 0.1038049 0.080587715 -0.030479189
-0.044444915 -0.15003932 0.04131274 -0.045032453 -0.043862917 0.060356785 0.057422835 0.0036222797
0.014328513 -0.103943996 -0.05229839 -0.11057343 -0.09996264 0.085774444 0.12232246 -0.02404512
0.041603614 -0.056513276 -0.022836313 0.10778263 0.030709771 -0.06511982 0.054644987 -0.013927705
-0.0650999 0.0863046 0.112321734 -0.07329025 -0.06553653 -0.1329136 -0.036252998 -0.1476269
0.032134034 -0.044474375 -0.06835777 -0.10794186 -0.06555404 0.036135092 0.083193816 0.05859555
-0.074697845 0.031229 -0.041944295 -0.016313316 0.034606628 0.15287495 0.102021895 -0.07662455
0.08202961 -0.09819633 -0.09990099 -0.08763465 -0.061400548 -0.06994604 -0.089555025 -0.1056944
-0.031938408 -0.0420889 -0.03927304 -0.11050484 0.04809869 0.108116075 0.12435677 0.069582276
0.112208724 -0.04326932 -0.05769085 0.031580567 -0.044077795 0.09601229 0.06629382 0.050089385
-0.07915978 0.021334022 -0.114046305 -0.06716044 0.028142521 -0.06983668 0.028744977 0.11492403
0.009060927 -0.025453221 0.10593147 0.05597455 0.008771696 0.09729015 -0.07488779 -0.015748918
-0.067816816 0.108802795 0.07416377 -0.05216674 -0.093156226 -0.053924847 -0.03087063 -0.035784338

backbone.2.conv.bias f4 [16]
00000000: a3c3 c3bd 7e25 d2bc 02b1 63bc efc4 d7bd
00000010: e1e6 c6bb 47cf 543d 3113 e6bc 5cb3 43bb
00000020: e590 8fbc d347 7fbd 7f36 80bb 78d2 433d
00000030: 1189 ccbc ba6a a3bd ee01 a8bd 2f99 8dbd
-0.09558799 -0.025652643 -0.013897182 -0.10535609 -0.0060700034 0.051955488 -0.028085323 -0.0029861545
-0.017525146 -0.062324356 -0.0039127464 0.04780814 -0.024967702 -0.07979341 -0.08203493 -0.06913983

backbone.2.bn.weight f4 [16]
00000000: 3c4f 823f 6492 833f ee5d 823f 2f62 7c3f
00000010: 9a80 833f 49b2 843f c868 793f cc9b 793f
00000020: b4ff 7f3f 4f93 7f3f df9d 7d3f a2fc 7a3f
00000030: 7b74 753f 5066 833f be15 813f f8d4 733f
1.018043 1.027905 1.0184915 0.98587316 1.0273621 1.0366908 0.9742551 0.9750335
0.99999547 0.9983415 0.9906902 0.9804174 0.9588086 1.0265598 1.008476 0.9524684

backbone.2.bn.bias f4 [16]
00000000: 69af 523d fde7 bcbc 2a3d 2f3c 20c4 27bc
00000010: 196c b3bc 6b99 56ba d89f 07bc 68d6 1a3c
00000020: cc1a a2bc 5432 243c b99e e93c 7e0e fbbc
00000030: 444c 8539 64f3 4ebc 5ffc ee3c 352f 973c
0.051436815 -0.02305984 0.010695735 -0.010239631 -0.02190213 -0.0008186313 -0.008277856 0.0094505325
-0.019788168 0.010021765 0.028518068 -0.030646559 0.0002542456 -0.012631271 0.029173074 0.018455127

backbone.2.bn.running_mean f4 [16]
00000000: 10a8 e4be cdf3 38bc 0b6e 1abf 29d8 b5be
00000010: 9296 61be 4a92 d5be 7b2f 9bbe b428 ed3d
00000020: 3bdc 073f edba bdbe e8a7 9dbe f2da 013e
00000030: 0a3d a13c b9d4 d73e 39d8 ca3d 7e7e 293c
-0.44659472 -0.011288595 -0.6032416 -0.3551648 -0.22030094 -0.41713172 -0.30309662 0.11580029
0.5307042 -0.37056676 -0.30792165 0.12681177 0.019682426 0.42154482 0.099045224 0.0103450995

backbone.2.bn.running_var f4 [16]
00000000: 25e3 2e3d 9eeb 4d3d ca40 2a3d 4013 a73e
00000010: 185e fd3c ec66 333d 33a7 f43c 0de9 323e
00000020: 6f5e 4f3d 431f 223e d842 9a3c 3230 6e3d
00000030: 313b 8d3e fb29 383d a822 c93d 8799 8f3e
0.04269709 0.05027353 0.041565694 0.32631874 0.030928656 0.043799326 0.029864883 0.17471714
0.05062717 0.15832238 0.018830702 0.05815143 0.27584222 0.04496191 0.09821063 0.2804682

backbone.4.conv.weight f4 [16, 16, 3, 3]
00000000: f2bf 593d a092 133d 7e94 ae3c 79a2 e3bc
00000010: a059 48bc 777c 833d 70ad 1d3c b997 983d
00000020: acc7 bdbc a81b 393d 6571 ad3c 8634 8c3d
00000030: 2ee5 ae3d 9466 993d 97b7 163d acc7 03bd
00000040: d151 913d e0f4 3dbc c981 553d bddc 80bc
00000050: 79a4 d53d 369f 2cbc 7f6c b43c cbec 1b3d
00000060: 18ba 7e3d 66c4 a33c 77db 9b3d 39bb dfbb
00000070: 7bfe aabc de99 5f3d 9633 34bd 252b 683d
00000080: 75a8 6bbd fcba 003d efe6 ad3c c9df 3e3d
00000090: 9f46 7dbc f3ec 39bc c8d2 0f3b 4b6f a13c
000000a0: 1673 abbd 49d2 9dbd d63b 3dbd fe3c 8f3d
000000b0: d0ea 973d 7d9e a03d c23f 72bd d78f 91bb
000000c0: 9178 da3c 901c 833d 1e79 f13d 0966 2a3d
000000d0: cb31 bd3d e32b 2bbd aa86 d9bc 6858 ffb9
000000e0: d73b f3bb 5fb4 103d 8abe 0fbd c3ed 7cbc
000000f0: 1c13 fcbc 4526 b33d 6a10 26bd 639a bc3b
00000100: 1f91 9b3d 0779 b13d 35bd eb3c 20f1 4dbd
00000110: 0ffd 363d c134 013d d8c1 f6bc 50e1 963d
00000120: 93b7 f2bc 6ec7 99bd b7bd 3cbc 3fac 293d
00000130: ccc4 5ebb 1cb9 9abc d919 863c 43ff 04bd
00000140: 1b91 a0bd e83d 773d af9b 0e3d 1fff d23c
00000150: e689 c23c 081f fcbb e23d 933d b0e0 25bd
00000160: 38bf b83d 4dc7 edbb 63f7 893d 51b0 d03b
00000170: c9ea 0dbd 9023 ffbc d9ef 293d a2a2 f1bb
00000180: ff4d 0e3d ef5b 4d3d 0fb9 843d 6804 34bd
00000190: 5efe a8b9 e9e1 02bd 07d8 58bd 3c09 fbbb
000001a0: dcde df3b e6f9 9ebd dff9 d73a b126 62bc
000001b0: 333e 63bd 656c 083d c10f 8a3d 273b 50bd
000001c0: e1d5 423d 32d7 56bd 8a50 513c a6a6 253a
000001d0: 5922 2e3d c352 053c 2f3d 1abd 6940 703d
000001e0: 3ef2 29bd f101 06bc 479b 153b 7b64 edbb
000001f0: e4c0 143d 7a99 343d ba4e aabc b9b3 c03a
00000200: a3c6 1a3d f68b 443d 0fac 73bd b83b a3bd
00000210: ff0a 723c 160c a6bd d3dd 443b f38e 9fbc
00000220: 4704 8ebd 5869 edbc c6bb d7bc 9c18 973d
00000230: 021b 38bd f6a4 bc3d 751a 05bd 61f1 423d
00000240: c920 05bb 61ed 193e 0d63 973c ba94 2c3d
00000250: b67d 50bd 6d3c d83c 2121 75bd e212 88bd
00000260: 78f7 d4bc 58ab e1bc 9109 1f3d e247 92bd
00000270: f1a4 b8bd ba27 0e3d a0c2 8a3c 0d9f 643d
00000280: 42e9 47bc 7b39 843d d48e c33d 410d cf3d
00000290: d76c 82bd ebc2 123d 48d1 1abd c09a 4d3d
000002a0: 0d73 59bd b668 513d 8a34 75bd aa6b 803c
000002b0: 6b4f a6bd 483b 203c 0d63 d83c c158 ad3d
000002c0: 3313 b03c a78d cf3d 1f60 9a3d b3f6 433d
000002d0: 159b 393c 64bf 553d 65e6 e73c 7666 283d
000002e0: 7869 8ebb 8888 87bd 4ff8 613d 4450 cb3c
000002f0: 4616 28bd a342 b9bc d65c 2f3d 0271 24bc
00000300: 6020 acba 9cdd ba3b d36f a7bd 6f1f 04bd
00000310: 7deb 4a3d e667 8fbd 1abd cbbb 4402 4f3d
00000320: 8f89 d43a 1583 ba3c 0321 86bc 4f94 1ebd
00000330: 9c86 82bc 0454 403d 0c14 5e3d 634f 323d
00000340: afc9 3e3d ef5b 593d cc3d 6d3d ddbe 813d
00000350: 9fe0 8c3d 53bf 8fbc 64e1 a5bd 0b81 853d
00000360: 4598 453d 69c4 f33c be76 a8bc e60d 68bd
00000370: 5929 98bd efe5 25bc f0d8 473d bbee 85bd
00000380: 92f7 fbbc cb21 ce3d 80c3 863d 6461 32bd
00000390: 56ab 77bd 39d6 e9bc 1238 9a3c 30ad 36bd
000003a0: 557c e63c d7fe a4bd 697e e1bc b9d9 a7bb
000003b0: 1b2a 9e3d 75b9 d4bc ad5e 74bd 22bd 88bd
000003c0: f7b5 a33d 62ec dbbb 25ea 9abc 2163 e1bd
000003d0: 1474 e7bd 27bd a13c d57b 1dbd 0829 b6bc
000003e0: 1187 86bb 5eca a43c 9152 37bd f40e a1bc
000003f0: 66ca d1bc f151 af3d 4371 97bd 96dc 9b3d
0.05316157 0.036028504 0.021311041 -0.027787434 -0.0122283995 0.06420224 0.00962387 0.07450814
-0.0231665 0.04519239 0.021172235 0.068459556 0.08539806 0.07490268 0.03679618 -0.032172844
0.07095683 -0.011594027 0.052125726 -0.015730256 0.10431761 -0.010536006 0.022024391 0.03806762
0.06218919 0.019991111 0.07610219 -0.0068277386 -0.020873299 0.0545901 -0.04399451 0.05668177
-0.0575337 0.031428322 0.021228282 0.046600137 -0.015458732 -0.011347997 0.0021945704 0.019706389
-0.0837156 -0.07706124 -0.046199642 0.06994055 0.07417834 0.07842729 -0.059142835 -0.004442196
0.026668819 0.06401932 0.117906794 0.041601215 0.09238013 -0.0417899 -0.02655347 -0.00048703258
-0.007422905 0.035328265 -0.03509382 -0.015437546 -0.03077083 0.08747534 -0.040542997 0.005755709
0.07596039 0.08665662 0.028776744 -0.050278783 0.04467493 0.03154445 -0.030121729 0.07367194
-0.02962855 -0.07508741 -0.011519841 0.041424032 -0.0033991812 -0.018887095 0.016369747 -0.03247
-0.07840177 0.060361773 0.03481644 0.025756417 0.023747396 -0.007694129 0.071895376 -0.04049748
0.09020847 -0.0072564245 0.067366384 0.006368675 -0.034647737 -0.031144887 0.041488502 -0.0073741237
0.03474235 0.050136503 0.064806096 -0.043949515 -0.00032232975 -0.031953726 -0.052940395 -0.007661013
0.006831987 -0.07762508 0.0016477666 -0.01380317 -0.05547924 0.033306498 0.06741286 -0.050837662
0.047567252 -0.05245132 0.01277555 0.0006319083 0.042513225 0.008137408 -0.037656005 0.058655176
-0.041490786 -0.008179174 0.0022828148 -0.007244644 0.036316767 0.04409168 -0.020789493 0.0014701999
0.03778709 0.04798504 -0.05949026 -0.07970375 0.0147731295 -0.08107774 0.0030039444 -0.019477343
-0.069344096 -0.028980896 -0.026334655 0.07377741 -0.04494763 0.09211151 -0.032495935 0.047593478
-0.002031373 0.15031959 0.018479848 0.042134024 -0.050901137 0.026396 -0.059846047 -0.066442266
-0.025996909 -0.027547523 0.038827483 -0.07142617 -0.09015835 0.034705855 0.016938508 0.055815745
-0.012201609 0.06456276 0.09548727 0.1010995 -0.06368416 0.03583042 -0.037797242 0.05019641
-0.053088237 0.05112525 -0.05986456 0.015676338 -0.081206165 0.009779759 0.026414419 0.08464194
0.02149353 0.1013444 0.07537865 0.047842693 0.011328478 0.052184477 0.028308103 0.04111334
-0.004346069 -0.06617838 0.055168446 0.024818547 -0.041036867 -0.022614783 0.042813145 -0.010036709
-0.0013132207 0.0057026874 -0.08175626 -0.03225654 0.049540985 -0.07002239 -0.006217611 0.05053927
0.0016215312 0.022767583 -0.016373163 -0.038715657 -0.015933327 0.046955124 0.054218337 0.04353274
0.04657906 0.05306619 0.057920262 0.063352324 0.068787806 -0.017547285 -0.080996305 0.065187536
0.04824092 0.029756742 -0.020564433 -0.05665388 -0.074297614 -0.010125621 0.048790872 -0.06539675
-0.0307577 0.10065039 0.065802574 -0.04354991 -0.060466133 -0.028544532 0.018825565 -0.04459876
0.028135458 -0.08056419 -0.027526097 -0.00512239 0.07722875 -0.025967339 -0.059660602 -0.06676699
0.079936914 -0.0067115286 -0.018910477 -0.110052355 -0.11301437 0.019743515 -0.038448174 -0.022236362
-0.0041054566 0.020116027 -0.044756476 -0.01966045 -0.025609206 0.08560551 -0.0739465 0.07610433

backbone.4.conv.bias f4 [16]
00000000: 1a52 893c 8cb5 0d3d 52b2 33bd 7704 8dbd
00000010: b8a4 513d fe59 bd3c 56e3 4ebd e923 37bd
00000020: 65ab 8c3c 8ba7 a3bd f5de 1e3d dbb4 833d
00000030: 3219 2a3d e416 59bd 121a 29bd a6f1 b7bc
0.016762782 0.034596965 -0.04387123 -0.06885617 0.05118248 0.0231142 -0.050509773 -0.04471198
0.017171571 -0.07990941 0.038786847 0.0643098 0.041527934 -0.053000346 -0.04128463 -0.022454094

backbone.4.bn.weight f4 [16]
00000000: 2d12 853f 2761 893f 0d43 863f 182a 823f
00000010: 64e7 8e3f c372 893f 900b 7f3f 98cc 843f
00000020: e6e8 8a3f 21e7 843f f9fb 873f 2ed0 833f
00000030: dc0b 893f 2056 873f b3a9 813f e196 883f
1.0396172 1.0732774 1.0489212 1.0169096 1.1164365 1.0738147 0.9962702 1.0374937
1.0852325 1.0383035 1.0623771 1.0297906 1.0706744 1.0573158 1.0129913 1.0671045

backbone.4.bn.bias f4 [16]
00000000: db36 8d3c 2fa9 0f3d b941 6b3c c875 713c
00000010: 7405 9c3c 297d 183d 9dc2 d5b9 cc0e 203d
00000020: fbc2 253d f827 a43b 51cc bb3c 3899 313c
00000030: 78a2 323d 9f51 bf3c 2338 7bbb 1bbf 563c
0.017238071 0.035073455 0.014358931 0.014737554 0.019045569 0.037228737 -0.00040771524 0.03907661
0.04046915 0.0050096475 0.022924574 0.010839753 0.043611974 0.02335435 -0.003833302 0.0131070865

backbone.4.bn.running_mean f4 [16]
00000000: 1172 df3e f980 2b3d d0a0 13bd a566 203d
00000010: 79c3 94bd 3906 cf3d 9b7d 62bf 3d10 8f3e
00000020: a96f 103e cbfe 52be d5a5 903e c47a 993d
00000030: f7d4 393e 44e1 983d daac d53d 4120 ba3e
0.43641713 0.041871045 -0.036042035 0.03916039 -0.07263846 0.10108609 -0.8847291 0.27942076
0.14105095 -0.20605008 0.2825152 0.07494119 0.18147646 0.07464841 0.104333594 0.36352733

backbone.4.bn.running_var f4 [16]
00000000: cedf 563e 2cb0 a23d 705e 853e e6c5 193e
00000010: 24fe c83d bb25 ef3d 50bc df3e c156 033e
00000020: 20d6 d13d fe09 593e 6226 853e 8d6a 083e
00000030: d0d7 583e 4573 ba3e 42c4 fe3d d5cc 7e3e
0.20983812 0.07943758 0.26048613 0.15016899 0.098140985 0.116771184 0.4369836 0.12826063
0.10245919 0.21195218 0.26005846 0.13321896 0.21176076 0.3641607 0.12439777 0.24882825

classifier.0.weight f4 [2, 256]
00000000: 168e 41be be19 8bbd 6a62 44bd aecd 133d
00000010: bba8 553d ba53 21be 6197 34bc 2b0c cd3c
00000020: 8954 823d 5502 54bd fea1 f0bd 52b8 89bd
00000030: 9790 c53d 9b05 8abd c34e 54bd 164d 69bc
00000040: 951d afbd 4a29 063e d1de 433c af6e 06be
00000050: 4480 d1bd 2911 29bc e10c 67be 42f5 33be
00000060: c86e 853d dc4c 973d 2f4d e5bb 619c f9bc
00000070: ee98 24be e5b8 a83c 69b0 e7bd e032 31bd
00000080: b504 653e bd29 153e 16d6 2bbd 79cb 123e
00000090: 6824 8ebd 5f36 0bbe c3dc c83d 6970 b6bd
000000a0: 346c 26be f7a9 0abe 999c e63c 2aa0 a43d
000000b0: e490 163d 0d1c 333d d2a1 4c3d 2b18 443d
000000c0: 66c1 d0bc c2c7 5ebd d23a e43d 3bfe 24be
000000d0: f0d3 02bd 2b28 7b3d e88c 0ebd e311 1ebe
000000e0: 5b75 a63d df90 0dbc 244d 01be ed35 993b
000000f0: de26 bfbd 872a da3d 730d 9e3d 6a23 e63d
00000100: 721e 963c 7709 a13d 7dff f13d 9dc1 123e
00000110: 1466 473e 4851 603d 246d 3e3e 1c88 0bbe
00000120: 639e fcbd 938e d4bd 80b3 20bc 44ba c6bd
00000130: b3ed e23c f2f1 6e3d 92d3 c7bd 94b3 c43d
00000140: 4cb4 193d b604 0dbe cfdb fdbd 169e 25be
00000150: 600c 48bd 9b2a 46be 6c7f d0bd 2418 75bd
00000160: 6135 603e fb1b ebbd af83 823d e4f2 663d
00000170: 45f8 76bd 3c34 b8bb e7e3 d4bd 8831 ec3c
00000180: a587 e1bb d6a1 e53d 98c1 f03c 6d7c e93d
00000190: a113 1bbe 7187 703d 6cd1 e83d eef0 22be
000001a0: 227c c1bc 53de 11be ef2b 7fbc 70df 0bbe
000001b0: f3aa 893d 650b b3bc 5696 06bd 993d b8bd
000001c0: 27d6 afbd 4617 943d 5ad7 3abd a499 7dbd
000001d0: 120e 08bd acd6 eabd 5391 e83c 6615 dabd
000001e0: 9375 083d 31f1 af3d 8659 853d f892 3dbc
000001f0: 8f14 423d 599f 6e3d b194 0bbe 60d4 e63d
00000200: b93f 843d af26 9abd c8b9 df3c b0a0 bd3a
00000210: 26d6 7eba 3acf 573d 8ddf c73d 8a49 7d3d
00000220: b795 603d e0c4 bbbc 7e52 9b3d 9411 2c3d
00000230: 2248 0cbe 4db2 62bd 61c5 b03c 9e4c dfbd
00000240: f1ad d1bd d6c9 0a3d f0c3 783d c3a3 3f3e
00000250: 63c9 f93d 1470 d43b d774 1abd 4322 cfbb
00000260: 4107 713d 01bf d73d 1f0f 23bd 354e ddbb
00000270: 4a3e 193d b9d4 fabc 6fcb 2f3d fbcb c73c
00000280: fe83 813d 313f 013e 266d 75bd af35 5b3e
00000290: a3cc 90bd 385d 133e 1f11 8a3d d82b aaba
000002a0: ef94 c4bc 3cb4 25bd a2cc 06be acdf 5c3d
000002b0: 5641 2cbd dae8 6abd fa04 0d3d af3a bcbd
000002c0: ba55 03be 0eaa d73d 25c9 8fbe 911f 01be
000002d0: 48e2 07be 7b8d a8bc 809d 7a3d 1a2d a6bd
000002e0: 72fd 82ba eab3 a63c caa8 01be 912f 83bd
000002f0: a801 df3d 724c 943d 1ae3 113d d39b 71bc
00000300: ec91 b6bd 9a42 36be 1794 2cbe cd68 5bbe
00000310: 7131 f8bd 25ca 16be 474f 16be 133c e5bc
00000320: e0b5 98bc eaa6 f93d 0459 e6bd 6696 b6bd
00000330: 2927 173d 11cb cebd cab7 e5bb 3284 013e
00000340: c6fd 6abd c368 f63d 97d4 dc3d c997 6f3e
00000350: 9305 093e 9033 e13c ee26 b63d 7ff5 aabc
00000360: 6f82 af3d a788 3cbd eb7b a63d 5017 aabd
00000370: 6460 823d 02f8 e83d 8a30 403d 4a6b e33c
00000380: 45ef c2bb 7c06 8bbd bf5f a5bc 7fde 1f3d
00000390: 1f48 213d 0480 bcbd cccc b23b c21e 36bd
000003a0: e647 043d 1978 dcbd 4646 58bd b56f b43d
000003b0: 821c abbd 7139 92bd 4a39 0b3e a3b6 113e
000003c0: 5ab5 bcbd 2557 523d 249f 843e 7858 763d
000003d0: 754f 07be 5a7a f4bd 9b66 13be 4b69 693c
000003e0: 1617 0d3e 062d 6ebd 8c35 4cbd 69d1 bf3c
000003f0: add8 9dbd 56cd 10be f1c8 2fbc 8ab9 27bb
-0.18901858 -0.06792019 -0.047945417 0.036084823 0.052162867 -0.15754595 -0.01102242 0.025030216
0.0636378 -0.051760036 -0.117496476 -0.067246094 0.09646719 -0.067393504 -0.051832926 -0.01423957
-0.08550564 0.13101688 0.011954979 -0.1312816 -0.10229543 -0.010319033 -0.22563507 -0.17574027
0.065152705 0.07387707 -0.0069977264 -0.030470075 -0.16073963 0.020595977 -0.113129444 -0.04326141
0.22365077 0.14566703 -0.041952215 0.14335431 -0.06940538 -0.1359496 0.09807732 -0.08908159
-0.16252214 -0.13541399 0.028150843 0.08038361 0.036759272 0.043727923 0.04995901 0.04787461
-0.025482845 -0.054389723 0.111440316 -0.16112606 -0.0319404 0.061317604 -0.034802347 -0.1543651
0.081278525 -0.008640497 -0.12627083 0.004675618 -0.09333585 0.10652643 0.07717409 0.112372234
0.018325064 0.078631334 0.11816309 0.1433167 0.19472533 0.054765016 0.18596321 -0.1362614
-0.12334897 -0.103787564 -0.009808421 -0.09703496 0.027701234 0.058336206 -0.09757151 0.09604564
0.03752546 -0.13771328 -0.12395441 -0.16173586 -0.048839927 -0.1935219 -0.10180554 -0.059837475
0.21895362 -0.11479946 0.06372773 0.056383982 -0.060295362 -0.005621461 -0.103950314 0.028832212
-0.006882625 0.112125084 0.029389188 0.114006855 -0.15144207 0.058722917 0.11368069 -0.1591222
-0.023618761 -0.14244966 -0.015574439 -0.13659453 0.06722059 -0.02185602 -0.032858215 -0.08996124
-0.08585768 0.072310016 -0.04561553 -0.0619141 -0.033216543 -0.11466727 0.028389608 -0.10648613
0.033315253 0.085909255 0.06511216 -0.011570685 0.047382887 0.058257435 -0.1363094 0.11270976
0.06457467 -0.075269096 0.027310267 0.0014467444 -0.00097212417 0.05268786 0.09759436 0.06183771
0.05483028 -0.022921026 0.075840935 0.04200895 -0.13699391 -0.055345822 0.021578493 -0.109032854
-0.10238255 0.033883892 0.060733736 0.18714814 0.121966146 0.0064830873 -0.037709083 -0.006321223
0.05884481 0.10534478 -0.039809342 -0.006753708 0.03741292 -0.030619012 0.04291862 0.024389258
0.06324004 0.12621762 -0.059918545 0.21407197 -0.07070281 0.14391029 0.06741547 -0.0012983037
-0.023996798 -0.040455088 -0.13163999 0.053924248 -0.042054497 -0.05735097 0.034428574 -0.091908805
-0.12825671 0.10530482 -0.2808315 -0.12609698 -0.13269913 -0.020575276 0.06118536 -0.08114071
-0.0009993745 0.020349462 -0.12662044 -0.06405557 0.10888988 0.07241143 0.03561697 -0.014746624
-0.08914551 -0.17798844 -0.16853367 -0.21426697 -0.12118805 -0.1472555 -0.1467868 -0.027982747
-0.018641412 0.121900395 -0.11247447 -0.08915405 0.03690258 -0.100973256 -0.0070104348 0.12648085
-0.057370923 0.120317005 0.10782736 0.23397745 0.13381033 0.027490407 0.08894144 -0.020869015
0.085698 -0.04602876 0.08129104 -0.08305228 0.06366041 0.11375429 0.04692129 0.02776112
-0.0059489333 -0.06788346 -0.020187257 0.03903055 0.03937542 -0.092041045 0.0054565426 -0.044462927
0.03229513 -0.10765094 -0.052801393 0.08810369 -0.08355047 -0.07139862 0.13596073 0.14229827
-0.092142776 0.05135264 0.25902665 0.060142964 -0.13213904 -0.11937399 -0.1439461 0.014246295
0.13778338 -0.058148406 -0.049855754 0.023415284 -0.07707343 -0.1414083 -0.0107290605 -0.0025592768

classifier.0.bias f4 [2]
00000000: 024f 81bd 33c2 21bb
-0.06313898 -0.0024682402
